cait/resources/cnn-clf-binary-v2.ckpt (torch, 237609 bytes, 24 tensors)

conv1.weight f4 [50, 1, 8]
000000 1e 02 5e be 97 6b ad bd 0d 2c ea bd c0 3d 35 3e
       -0.21680495 -0.08467787 -0.11434183 0.17699337
000010 1c 32 04 3f 66 15 1b 3f c7 6f 48 3f ad 3e cf 3e
       0.5163896 0.60579526 0.7829556 0.40477505
000020 84 a1 16 bf 25 9c 01 bf 01 83 2a bf 91 2d bc be
       -0.58840203 -0.5062888 -0.66606146 -0.36753514
000030 50 56 3b bf 36 d4 c5 be 77 ab e6 be c1 ec 01 bf
       -0.7317858 -0.38638467 -0.45052692 -0.5075188
000040 c3 6e f3 81 4a a5 08 82 52 ef 09 82 0d 31 14 82
       -8.942304e-38 -1.0039138e-37 -1.0133852e-37 -1.08874e-37
000050 c0 11 0d 82 fc e6 10 82 ae 71 0c 82 2c 33 09 82
       -1.0364138e-37 -1.0645738e-37 -1.03182e-37 -1.0079856e-37
000060 32 8b 8e be b3 b4 cc bd 9a 72 44 3e 5d f2 65 3d
       -0.27840573 -0.09995403 0.19184342 0.05613934
000070 dd 73 05 3e 37 c4 cc 3e 7b 14 8f 3d 3d a0 03 3f
       0.1303248 0.3999345 0.06986328 0.5141638
000080 55 ae 07 3f d8 26 e9 3e 4d 84 8d be 16 4a 64 3d
       0.53000385 0.45537448 -0.2764 0.055734716
000090 15 18 95 be ca 18 bd bb d2 42 40 3e 85 29 2c 3e
       -0.29119936 -0.0057707774 0.1877549 0.16812713
0000a0 df 7a 24 82 70 f9 2a 82 3c a1 29 82 67 7a 23 82
       -1.2084079e-37 -1.2561213e-37 -1.2462431e-37 -1.2010476e-37
0000b0 58 1b 29 82 11 0a 1c 82 c2 e6 24 82 ea da 30 82
       -1.2424006e-37 -1.1463959e-37 -1.2115041e-37 -1.2993263e-37
0000c0 db 5b 90 bf 0f be 40 bf 42 37 c3 3e b2 d9 7d bf
       -1.1278032 -0.75290006 0.38128096 -0.991603
0000d0 f7 5a 83 bf 15 00 8c bf 79 d2 6b bf ef b9 7e bf
       -1.0262135 -1.0937525 -0.9211803 -0.9950246
0000e0 88 90 f1 bd 33 0d 9f be 36 46 c2 be c8 1b 3d be
       -0.11795145 -0.31064758 -0.37944192 -0.18467629
0000f0 91 cc 11 3f 97 0c 16 3f ad 9d 68 3e 93 b0 5d 3e
       0.5695277 0.5861296 0.22716399 0.21649389
000100 90 e3 9e 3e 89 c1 29 3b b0 8f b1 3e 51 d9 be 3e
       0.3103299 0.002590271 0.34679937 0.37275174
000110 5d 02 3c be 50 f1 0f be ed d2 d2 3e 39 87 01 3f
       -0.18360277 -0.14056897 0.4117655 0.5059696
000120 6a 21 d8 3e 32 99 01 3e 68 fb f6 3e e2 ab fd 3e
       0.42212993 0.12656096 0.48238683 0.495452
000130 00 d1 48 3e 41 62 19 bd ae b4 40 be a3 65 b2 3e
       0.19610977 -0.037447218 -0.18818924 0.34843168
000140 43 4d c2 be 17 1f be be ef 96 c3 be 93 83 3b be
       -0.3794957 -0.37133095 -0.3820109 -0.1831191
000150 f9 4b 34 3e be 22 db 3e 91 17 d9 3e 30 25 a6 3e
       0.17607106 0.42799944 0.42400792 0.32450247
000160 73 ef d5 3b 64 41 5c 3e be e5 19 be d1 cc 8e be
       0.0065287887 0.2150932 -0.15029046 -0.27890638
000170 2f 6d 2a 3e 89 f2 d2 3e 8b 6b f3 3e 00 b7 b6 3e
       0.16643213 0.41200665 0.47542986 0.35686493
000180 12 04 07 3f 59 72 4d be 0c 8b 41 be 57 2b 01 be
       0.52740586 -0.20063151 -0.18900698 -0.12614189
000190 09 b8 d7 be d2 f0 8a be 97 c6 ad 3d ed 07 0f 3f
       -0.42132595 -0.27136856 0.08485144 0.5587147
0001a0 c5 ce 9a 3b ef f4 ec 3e 50 ac b8 3c 13 bc 02 3f
       0.004724356 0.4628062 0.022543103 0.5106823
0001b0 db e3 fc 3e aa 7e ea 3e a9 b2 78 be 21 56 c0 be
       0.4939259 0.45799762 -0.24286903 -0.3756571
0001c0 9b ab 37 3d ac 9d a5 3e 3c 9a e4 bd 2c 76 ae 3e
       0.04484139 0.32346857 -0.1116223 0.34074533
0001d0 ad a4 5b be 11 ec c2 3e 60 66 b1 3d e9 95 de 3e
       -0.21449538 0.3807073 0.086621046 0.43473747
0001e0 f5 8a 44 3e 67 f7 8e be a1 46 90 3d d6 1b 9c be
       0.19193633 -0.27923128 0.070447214 -0.30489987
0001f0 14 1c 96 be 81 46 3b be 32 9b 9d bc 76 30 a4 bc
       -0.29318297 -0.18288614 -0.019239042 -0.02004264
000200 f4 09 22 83 2a d0 22 83 0e 21 1d 83 28 5c 22 83
       -4.7618947e-37 -4.784648e-37 -4.61761e-37 -4.771331e-37
000210 f4 72 21 83 05 5d 0a 83 83 1d 09 83 17 f6 07 83
       -4.7445607e-37 -4.0661336e-37 -4.029456e-37 -3.995543e-37
000220 f7 a3 90 be 78 90 cf be 20 1c fd 3d 8d ab bf 3e
       -0.28250095 -0.40539908 0.1235888 0.3743557
000230 a8 7e db 3e 72 12 f0 3e 02 3e 67 3e 55 50 9b be
       0.4287007 0.46889073 0.22582248 -0.30334726
000240 49 fb 0e 3e 19 8e e0 3c 3d d5 94 3d f7 c0 1e 3b
       0.13963045 0.027411507 0.072672345 0.0024223903
000250 4d f6 b7 3e 48 86 d1 3d c7 ec f2 bc f1 62 83 3e
       0.359301 0.1023069 -0.02965392 0.25661424
000260 70 6c 86 3e ea 37 42 3e f2 c7 35 be 1f 6c a4 3e
       0.26254606 0.18966642 -0.17752054 0.3211374
000270 3d 2a 78 be ba f6 b0 be 7b 76 c8 be e7 f5 e9 3d
       -0.24234863 -0.34563237 -0.39152893 0.11423855
000280 8b 0f c0 be 20 63 c0 be 91 39 4e 3e 32 ac 45 bd
       -0.37511858 -0.37575626 0.20139147 -0.04825992
000290 b4 dc 86 be 1c 87 96 3e b4 00 0f 3e f6 8c e1 3e
       -0.26340258 0.29399955 0.13965112 0.44052857
0002a0 6f b1 6e 3e 38 55 4a be b4 39 97 3e d6 31 9c 3e
       0.23309873 -0.19759071 0.29536211 0.30506772
0002b0 49 07 6d 3d ee 71 e6 bc 01 fa 87 3e 78 a3 e9 3d
       0.057868276 -0.028130498 0.26557925 0.11408132
0002c0 d6 5c 13 3f 6f 68 27 3e 28 62 05 be 81 32 85 be
       0.5756353 0.16348432 -0.13025725 -0.26015094
0002d0 7a f4 bd be 63 39 69 3d 5b 0b 9f 3e 91 5b b2 be
       -0.37100583 0.056939494 0.3106335 -0.34835485
0002e0 5f 36 78 3e 6b 10 48 3d 24 55 89 3e fc 08 c1 3e
       0.24239491 0.048843782 0.2682277 0.37702167
0002f0 97 bc f0 3e 90 44 15 be 68 cf cf be b8 a0 d0 be
       0.47018883 -0.14576936 -0.40587926 -0.4074762
000300 23 9a 99 3d 2f a9 b7 3e a7 13 b7 3e 16 c6 07 3e
       0.07500102 0.35871264 0.3575718 0.13259158
000310 3d 61 89 3d d5 4c 0b 3d b7 b0 ee be 71 14 10 bf
       0.06708 0.03400882 -0.46619198 -0.5628119
000320 a3 2e 1f bf f1 1b 09 bf 68 95 09 bf b8 32 11 bf
       -0.62180537 -0.5355826 -0.537436 -0.56718016
000330 21 50 fe be 23 1b 01 bf 4d 37 0f bf 80 a5 27 bf
       -0.49670509 -0.5043203 -0.5594376 -0.6548691
000340 68 94 01 bf 69 b5 ad be fa 6c 43 bc ff 9a 4b 3e
       -0.50617075 -0.33927467 -0.0119278375 0.19883345
000350 a7 96 2e 3f 08 96 c1 3e 07 a9 20 3f fd 0f 6d be
       0.6819863 0.37809777 0.62757915 -0.2315063
000360 a9 44 99 bd 9d 56 40 bc 47 00 84 3e 7c c0 af 3d
       -0.07483799 -0.0117394 0.25781462 0.08581635
000370 87 df 9c be 0d f8 cb 3e 22 b5 b4 3e f2 cc 34 be
       -0.30639288 0.39837685 0.35294443 -0.17656305
000380 17 31 b3 3e a9 dd af 3e a0 f4 52 3f ca 7f 5d 3f
       0.3499839 0.343488 0.8240452 0.86523116
000390 c8 02 4d 3f b4 4b c2 3d 87 5d ff bc c7 bd 76 bd
       0.8008237 0.094870955 -0.031172527 -0.06023958
0003a0 8f fb ae bf ab 63 9d bf a9 8f 8f bf de 74 80 bf
       -1.367052 -1.2296041 -1.1215717 -1.0035665
0003b0 7d 3e 81 bf 72 06 9e bf b2 da 9c bf 79 47 9c bf
       -1.0097195 -1.2345717 -1.225424 -1.2209312
0003c0 89 cd 1e be 7a e4 95 3e f2 41 c8 bd 53 81 44 3e
       -0.15508093 0.29275876 -0.09778203 0.19189958
0003d0 06 45 2d 3e c7 77 c4 be 8a 66 4a bd 88 3b df bc
       0.16920862 -0.38372633 -0.049414195 -0.027250066
0003e0 48 f5 55 bd 7d c9 19 bf fb 66 6a be 72 90 06 bf
       -0.05223587 -0.6007307 -0.22890846 -0.52564156
0003f0 75 d3 2d be 4b 7c f6 3e ee 86 15 3f 0f 81 00 3f
       -0.16975196 0.48141703 0.5840901 0.5019693

conv1.bias f4 [50]
000000 47 67 b6 b9 e2 5c 10 3e e3 3d 22 82 d0 d9 24 b9
       -0.00034790693 0.14097932 -1.1919641e-37 -0.000157214
000010 be 4f b3 39 93 d3 ab 82 31 ff 08 3e cf f3 54 3a
       0.00034200953 -2.524763e-37 0.13378598 0.00081234885
000020 ea 6d 5a 39 44 63 b6 39 d4 a3 c6 3b c9 2e 83 38
       0.00020831046 0.00034787704 0.0060620103 6.255281e-05
000030 4a 3d 17 3d de 40 f4 38 f8 b9 2f b9 9b b0 6a 3e
       0.036923684 0.00011646909 -0.0001675858 0.22918932
000040 4f cc 5d 83 76 34 05 3a eb e8 fa be b4 5c 8c 3e
       -6.5180598e-37 0.00050813647 -0.49005827 0.27414477
000050 ab 23 25 3c f6 68 24 bf 64 9b dc 38 1d 56 2e b9
       0.010079305 -0.6422266 0.00010519361 -0.00016626013
000060 2f 5a 23 3a a2 ef 53 3e 69 cd 2a 39 a6 6b b8 3d
       0.0006231395 0.20696881 0.00016288985 0.09004907
000070 b5 ca 84 b9 ef 7f 36 3e e3 45 72 3d 48 b4 35 3c
       -0.0002532803 0.1782224 0.05914868 0.011090346
000080 78 7f c2 82 1e 8c fc 3c dd ed 83 b9 af 77 db 3d
       -2.8578901e-37 0.030828532 -0.0002516349 0.10716187
000090 97 92 5c 3e 87 4b 9c 3c b8 1a 7e 3c 4b 06 96 39
       0.21540295 0.019078983 0.0155093 0.00028614918
0000a0 bc 50 89 3e 9f 54 83 39 4f 86 32 81 af dd 44 3e
       0.26819408 0.00025049315 -3.2789798e-38 0.1922519
0000b0 2e 1a de 39 c9 c9 c0 3b 44 ae 3c ba 93 e5 e2 be
       0.00042362645 0.0058834297 -0.00071975985 -0.44315776
0000c0 2c 2a b0 3b 5d c5 8e 3e
       0.005376121 0.2788495

conv2.weight f4 [10, 50, 8]
000000 49 9b f1 bd 6a d9 46 be aa 07 3a be 4b 4e 07 be
       -0.117971964 -0.19418874 -0.18166986 -0.1321346
000010 66 6a 52 3e f2 25 1e 3e 88 4d 2e bd 4d c2 ac bd
       0.205484 0.15444162 -0.04255441 -0.084354974
000020 7c 07 6f 3e bf 79 6f 3e d9 3c 25 3e 1f 17 22 3e
       0.23342699 0.23386286 0.16136493 0.15829132
000030 e2 41 b0 3d ec 7f c4 bc 4d 4b 30 bc dc 57 b6 3c
       0.08606316 -0.02398678 -0.010760141 0.022258691
000040 45 0d 10 80 39 7d da 00 c6 a6 18 00 79 db 7e 81
       -1.474128e-39 2.006506e-38 2.263879e-39 -4.6809896e-38
000050 60 f6 79 81 e6 7a 8c 81 7a 28 4a 81 79 bc 98 81
       -4.5910842e-38 -5.160423e-38 -3.713058e-38 -5.6106427e-38
000060 b6 4e 50 bd 36 33 e4 bd bc ec 23 be 6b 89 d9 bd
       -0.050856315 -0.1114258 -0.16008276 -0.106219135
000070 04 ae 89 3e d8 82 b8 3d 12 f4 57 bd fd 88 57 bd
       0.26890576 0.090093315 -0.052722998 -0.052620877
000080 35 83 79 ba ea f8 0f be ac b9 14 be e2 e4 79 bd
       -0.00095181476 -0.14059797 -0.14523953 -0.061009295
000090 76 44 36 3d f0 3d d1 3d 47 a9 9c 3d 21 14 a2 bc
       0.044498883 0.10216892 0.076494746 -0.019784989
0000a0 bb c7 df 01 cd 3e e0 01 51 3a d7 01 2b 69 07 02
       8.220386e-38 8.237472e-38 7.9062207e-38 9.948415e-38
0000b0 53 e5 01 02 4a a5 0b 02 01 d5 03 02 52 01 13 02
       9.543236e-38 1.0259543e-37 9.685489e-38 1.0800233e-37
0000c0 af 5a 91 3e f5 96 82 3e 23 1f 41 3e 29 c7 1d 3e
       0.283895 0.25505796 0.18859534 0.15408005
0000d0 46 9c 96 bb 05 ee 78 bd 8a bd cd bd e1 55 1e be
       -0.004596266 -0.060773868 -0.10045917 -0.15462448
0000e0 39 5b a3 bd 5b 89 36 be 85 23 e9 bd 90 1c 65 3d
       -0.07976384 -0.17825834 -0.11383728 0.055935442
0000f0 1d 89 b4 3e f1 9b 5b 3e dc eb 08 bb 32 0e 99 3c
       0.3526086 0.21446206 -0.0020892536 0.018683527
000100 aa d2 75 bd 45 08 a9 bd 8e 96 e4 bd 7a b2 11 be
       -0.060015358 -0.082535304 -0.111615285 -0.1422824
000110 3a a7 8e 3d 66 8f 96 3c 00 12 98 3b 8c cf db bd
       0.0696549 0.018378925 0.0046408176 -0.10732946
000120 eb 1d f1 bd 2b f1 11 be 07 b5 1e be 44 30 cc bd
       -0.117732845 -0.14252155 -0.15498744 -0.099701434
000130 c2 f9 13 3e f8 c7 a1 3d 65 f8 2b bc 3c 6e 2b bd
       0.14450744 0.07899469 -0.010496234 -0.041853175
000140 78 28 e0 3c f8 9e 49 be 57 e9 13 bd de c3 b6 3c
       0.027363047 -0.19689548 -0.036111202 0.022310194
000150 8e ff 03 3f bd 0b 9b 3e a8 97 35 bd 84 95 a6 3c
       0.5156182 0.30282393 -0.044334084 0.020334966
000160 18 55 06 be e8 63 14 be ef 7d 30 be 51 69 df bd
       -0.13118398 -0.14491236 -0.1723554 -0.109087594
000170 d0 9e fe 3d 7b 0d 27 3e 2d 2c 1b 3d df f0 35 bd
       0.12432635 0.16313736 0.037883926 -0.044419166
000180 4f 47 ac 3d 9e b0 43 bd e9 12 2a 3e 0d b7 3e 3e
       0.084120385 -0.047775857 0.16608776 0.18624516
000190 72 1f a5 3e cd c9 fd 3e a1 f0 75 3e 13 f5 84 3e
       0.32250553 0.49568024 0.24017574 0.25968227
0001a0 35 9a ab bb 2b 7a 8e bd 46 b5 2e be 0f 0a e3 bd
       -0.005236889 -0.069568954 -0.17061338 -0.11085903
0001b0 21 c5 89 3e fe 33 2b 3e 9b d6 0e 3e 6f 04 59 bb
       0.2690821 0.16719052 0.13949053 -0.0033114215
0001c0 e1 51 c3 bd a8 74 ac bd 99 eb 3d be 47 d6 94 bd
       -0.095371015 -0.08420688 -0.18546905 -0.07267433
0001d0 b1 54 30 3d dc 6b fb 3c d7 f4 01 bc 2c dc d8 bd
       0.043049518 0.03069108 -0.0079319095 -0.105888695
0001e0 6a da 3c 3e 24 c7 31 3e b5 56 d9 3d e3 75 11 3e
       0.18442693 0.17361122 0.10612241 0.14205126
0001f0 22 50 90 3d 2b b5 a1 3d 74 08 d1 3d b4 de 67 3d
       0.07046534 0.07895883 0.102066904 0.05660887
000200 c6 99 b3 02 0c 41 b6 02 12 d1 b1 02 79 1c b8 02
       2.6389948e-37 2.6779832e-37 2.6127813e-37 2.7052713e-37
000210 4d 3e b3 02 06 1e c1 02 6e f9 b9 02 40 21 b7 02
       2.6337445e-37 2.8376034e-37 2.7326472e-37 2.6908518e-37
000220 59 56 79 3c b3 17 37 bd 97 fc d5 bd cb 8b 55 3c
       0.015218341 -0.044700336 -0.10448568 0.0130338175
000230 01 96 56 3e 87 fa 4a 3d c8 38 c1 3d 2a 51 ae bd
       0.2095566 0.049555328 0.09434658 -0.085115746
000240 f4 59 98 bd 1d 35 6a 3c e7 76 49 3e 71 3f 92 3b
       -0.07439032 0.01429489 0.19674264 0.004463129
000250 9d ea 58 3e 19 08 15 3e 3e de 85 3c 00 46 8d 3d
       0.21183248 0.1455387 0.016341325 0.06898117
000260 f3 19 e9 3d 67 b0 cd 3d 90 e6 d3 3d db 37 ab 3d
       0.113819025 0.10043412 0.10346711 0.08360263
000270 aa f1 40 3e b1 04 24 3e f2 c5 18 3e 19 ea 07 3e
       0.18842188 0.16017415 0.1491926 0.13272895
000280 e3 d2 20 3c cf 45 e3 3c d3 9d a7 bb 6d 5b 92 bb
       0.009815904 0.027743248 -0.0051152497 -0.004466465
000290 01 c8 16 3e 45 6a e9 3b 8c ed 06 bd 84 22 61 3a
       0.14724733 0.007123264 -0.032941386 0.0008588212
0002a0 c5 3e a6 bd 89 ab 0a be 25 6f 55 3e 9a ea bb bb
       -0.08117441 -0.13541998 0.2084318 -0.005734754
0002b0 cc ee 8e bd a7 b8 cc bd d4 f6 63 be db cb 8a bd
       -0.06979141 -0.09996157 -0.22262126 -0.067771636
0002c0 b8 41 0c 3e 80 10 8f be b9 69 12 be 38 20 d2 3d
       0.13696945 -0.27942276 -0.14298142 0.102600515
0002d0 57 38 ed 3e 62 77 04 3f dd 0c 19 3f d8 97 de 3d
       0.46332046 0.51744664 0.5978525 0.10868806
0002e0 f6 07 0c bd cc d5 af bd ed 71 0d be 3d eb bb 3a
       -0.03418728 -0.085857004 -0.1381299 0.0014337074
0002f0 73 e4 8f 3e 64 0f 71 3e 93 c7 69 3e 28 98 af bd
       0.2810398 0.23541027 0.22830038 -0.085739434
000300 86 12 97 3d 90 94 76 bd 7c d7 1e be 9f 76 6b 3e
       0.0737658 -0.060200274 -0.15511888 0.22994469
000310 17 58 25 3f 7f 65 b3 3e 59 ee 89 3e c5 dc f1 bd
       0.6458754 0.35038373 0.26939657 -0.118096866
000320 c6 30 86 3e 95 c3 59 3e d5 5c 08 3e b0 50 a4 3c
       0.26209086 0.21266015 0.13316663 0.020058006
000330 3b 65 37 be 57 b4 66 be 28 d6 a3 be 99 73 aa be
       -0.1790971 -0.22529732 -0.31999326 -0.3329132
000340 11 cf 25 bd 4c 40 bc bd 13 27 34 be 4d 84 c0 bd
       -0.040480677 -0.09191951 -0.1759303 -0.09400234
000350 6a e4 ab 3e 8c 7d 00 3e b5 12 3a 3d 75 f2 a5 bb
       0.33572704 0.12547892 0.045427997 -0.0050643035
000360 69 1d c6 bc d6 8d d1 3c 58 25 30 bd 7d 56 fb bc
       -0.024183946 0.025580328 -0.043004364 -0.03068089
000370 82 cf 1b 3e a7 b9 69 3d f5 99 40 3d e3 81 69 bd
       0.15215877 0.057061817 0.047021825 -0.057008635
000380 52 bb 56 bd d9 35 ed bd 88 5f 22 be 18 e3 09 be
       -0.052424736 -0.11582536 -0.15856755 -0.13465536
000390 21 dd 88 3e 50 ac 53 3d 06 41 f7 3d 6e 6b ff bb
       0.26731208 0.051678002 0.12072949 -0.007794789
0003a0 f1 7d b4 3e 9f d2 8a 3e 47 6d 89 3e 85 d6 f5 3d
       0.35252336 0.27113816 0.26841184 0.12003807
0003b0 d9 af 1c be 71 c6 65 be e4 cc 56 be 06 e1 88 be
       -0.15301456 -0.2243898 -0.20976597 -0.2673418
0003c0 f7 31 7f 3d 18 db 90 3d 9f 4e 75 3d 81 4b ef 3c
       0.06230351 0.07073039 0.059889432 0.029210808
0003d0 ae fb 1e 3e 76 27 18 3e fe a1 dc 3d c0 75 5a bc
       0.15525696 0.14858803 0.10773085 -0.013333738
0003e0 59 cf 28 3e e4 4f 87 be 6a c0 1e 3d 49 f7 46 3e
       0.16485347 -0.2642814 0.03875772 0.1943027
0003f0 05 c7 1e 3f 9c 21 11 3f 34 3f 6a 3d 18 84 88 3e
       0.6202243 0.5669191 0.05718918 0.2666328

conv2.bias f4 [10]
000000 cf 3e 81 3d 49 23 74 3d ea b6 0c 3d a3 29 09 82
       0.06310808 0.059603963 0.034354128 -1.007712e-37
000010 c0 4a b6 3a d2 8b df 3d 18 4b 68 be e4 f3 99 3d
       0.0013907775 0.109153405 -0.22684896 0.075172216
000020 3b 62 9d 82 1c 1c 59 bd
       -2.3125458e-37 -0.053005323

fc1.weight f4 [200, 70]
000000 31 5f 7d 01 ce 18 4c 82 0b dd c4 81 52 61 86 02
       4.6537058e-38 -1.4994672e-37 -7.231621e-38 1.974539e-37
000010 de 0f 88 02 8a 78 24 02 4e d6 0c 82 1b af 7e 81
       1.9992511e-37 1.208341e-37 -1.0347078e-37 -4.6778064e-38
000020 5e de 49 80 ce a6 70 82 a3 90 18 82 ef f3 8c 82
       -6.783762e-39 -1.7680286e-37 -1.1208705e-37 -2.0711162e-37
000030 b3 60 a9 82 a4 89 f7 81 42 ce aa 02 cb 7a b5 82
       -2.488782e-37 -9.0930975e-38 2.5097641e-37 -2.666604e-37
000040 4e 34 6b 81 18 7e 6b 02 32 e6 0b 82 f2 f1 8f 81
       -4.320021e-38 1.730126e-37 -1.027817e-37 -5.287708e-38
000050 4c cd ae 02 d0 f7 8a 01 a6 e8 a4 81 61 2c 01 81
       2.5684837e-37 5.104879e-38 -6.057792e-38 -2.3725398e-38
000060 37 eb 8a 01 5a 77 9a 01 f2 c1 97 81 4b ce 48 01
       5.103071e-38 5.6741927e-38 -5.574694e-38 3.6882206e-38
000070 47 db b6 82 ec a4 c2 02 d5 cd 66 82 c0 7d 4d 01
       -2.6868356e-37 2.8600399e-37 -1.6956802e-37 3.7742775e-38
000080 6f eb eb 81 78 26 24 82 8c 44 17 81 c7 64 8f 81
       -8.6663197e-38 -1.2059857e-37 -2.77835e-38 -5.267451e-38
000090 b2 58 98 02 0a 8d 69 82 42 a6 56 81 ee 5e a1 82
       2.2385301e-37 -1.7158613e-37 -3.9424876e-38 -2.371131e-37
0000a0 6c a6 27 81 40 d6 89 82 f7 5a f6 81 78 5f f8 81
       -3.0792458e-38 -2.0253314e-37 -9.0496656e-38 -9.1237803e-38
0000b0 00 96 1d 82 6d e1 16 82 3c b7 1e 02 56 0d 20 02
       -1.1577586e-37 -1.1084954e-37 1.1660592e-37 1.1758771e-37
0000c0 b0 e0 17 82 0c f0 0c 02 48 e0 4f 82 14 e5 bf 01
       -1.115821e-37 1.0354466e-37 -1.5272324e-37 7.049103e-38
0000d0 43 f8 ae 81 04 33 41 80 df f6 69 82 69 80 a1 82
       -6.4273743e-38 -5.987608e-39 -1.7188985e-37 -2.3730528e-37
0000e0 be 62 bd 01 9c 6a 3b 01 02 79 37 01 92 71 a7 80
       6.9569323e-38 3.4422964e-38 3.369861e-38 -1.5377269e-38
0000f0 26 d1 9f 81 23 ac b6 00 32 f8 35 81 f6 b7 a5 82
       -5.870749e-38 1.6775811e-38 -3.342252e-38 -2.435016e-37
000100 7f d5 60 82 88 99 cf 01 70 fd 9e 00 a3 41 b8 82
       -1.6518191e-37 7.62601e-38 1.4600925e-38 -2.7074044e-37
000110 c6 23 29 82 66 02 86 01 4d 8c 58 be 64 78 2b be
       -1.2426426e-37 4.922727e-38 -0.2114727 -0.16745144
000120 be b4 26 3e 36 30 98 3d fd 95 c2 3d ac 22 9c 3d
       0.16279885 0.074310705 0.09501264 0.07623801
000130 28 0a 17 3d 51 ba 1b 3e 5c 92 13 3e e9 5b 25 bd
       0.03687492 0.15207793 0.144113 -0.040370855
000140 30 d2 2f bc fc 49 1e be 43 e7 98 bd ee e3 58 be
       -0.010731265 -0.1545791 -0.07465985 -0.21180698
000150 50 0e 0f 3c bc 7b 3e 3e a0 ae a9 3d 34 d7 f7 3d
       0.00873144 0.18601888 0.0828526 0.121015936
000160 18 84 53 bd a8 f7 b9 be dd 39 3c be f4 ab 1b 81
       -0.051639646 -0.3632176 -0.18381448 -2.8592374e-38
000170 13 ca ea 80 0c 10 01 02 22 4a df 00 13 73 2d 00
       -2.1561997e-38 9.482028e-38 2.050591e-38 4.173878e-39
000180 46 64 d2 81 d4 d1 5c 81 af 27 10 3c 43 49 2d 3e
       -7.72857e-38 -4.0558163e-38 0.008798524 0.16922478
000190 5a a2 80 bd 23 da e2 bc 9c 3f 66 be 55 32 c3 bd
       -0.06280966 -0.027691906 -0.22485203 -0.095310844
0001a0 13 24 0e be 31 98 ff 3c d3 47 5b 3d 6a 59 76 bd
       -0.13880949 0.0312005 0.053535294 -0.060143866
0001b0 9e 03 2a 3e 62 7a 55 be 9f 9b 8c be f4 c5 3b be
       0.16602942 -0.20847467 -0.2746248 -0.18337232
0001c0 bb 4c 94 be 93 a6 81 bd c0 18 a2 3c 11 35 3c 3e
       -0.2896479 -0.063306 0.019787192 0.18379618
0001d0 b0 ec 19 3e 08 74 38 3e b1 3d 1e 3e 87 10 96 3e
       0.15031695 0.18013012 0.15453221 0.29309484
0001e0 3e 1e b0 3d 33 6f ce 3d fb 15 49 39 67 f3 1a bd
       0.08599518 0.10079803 0.00019177042 -0.037829783
0001f0 6e 02 23 be 51 af ed bc 86 13 3f 02 c3 c2 48 02
       -0.15918896 -0.029014261 1.4038067e-37 1.4749573e-37
000200 8c dc 57 02 a0 57 52 02 30 4b 34 02 d9 4d 1d 02
       1.5858999e-37 1.545351e-37 1.3245889e-37 1.155688e-37
000210 ed 00 21 02 5f 1d 86 3c 1c ab ba bd d7 30 ed 3e
       1.1828678e-37 0.016371427 -0.09114668 0.46326324
000220 28 e2 53 bd 27 20 49 be 64 12 5d be a4 a0 57 bd
       -0.05172935 -0.19641171 -0.21589047 -0.052643433
000230 5a ee 21 82 eb 98 57 81 3b 1f b8 01 8c 1b 8d 82
       -1.1896815e-37 -3.9598977e-38 6.763574e-38 -2.07339e-37
000240 df d7 93 82 f5 fb 23 82 72 95 41 02 e7 f0 80 82
       -2.1723613e-37 -1.2047657e-37 1.4222289e-37 -1.894618e-37
000250 e1 37 89 82 a4 71 93 82 24 bf 79 82 a8 74 7b 82
       -2.0162414e-37 -2.1664935e-37 -1.8348486e-37 -1.8474046e-37
000260 4c 04 72 82 80 90 66 82 b1 57 67 02 62 e5 35 02
       -1.7780585e-37 -1.6939201e-37 1.6996366e-37 1.336361e-37
000270 7c d0 1b 01 68 b3 5c 02 0d 3f 74 02 7d 44 44 02
       2.8618584e-38 1.6214534e-37 1.7944384e-37 1.4419461e-37
000280 a2 3a 42 02 f9 4b af 81 e6 56 80 81 f0 3d 15 81
       1.4269696e-37 -6.439386e-38 -4.7144467e-38 -2.7411416e-38
000290 52 09 9d 81 a9 06 bf 81 e5 cb 90 81 2b 05 fe 00
       -5.7686066e-38 -7.0171876e-38 -5.318982e-38 2.332807e-38
0002a0 9f e2 82 82 6b e1 82 82 6a 34 84 82 e4 32 85 82
       -1.9231857e-37 -1.9231167e-37 -1.942574e-37 -1.9571803e-37
0002b0 f4 8b 81 82 b7 2d 8b 82 68 c8 86 82 28 1b cd 82
       -1.9035176e-37 -2.0450453e-37 -1.9804558e-37 -3.013763e-37
0002c0 00 72 26 02 88 0e f6 00 08 56 49 01 4e 0d 46 82
       1.222847e-37 2.2596745e-38 3.6979594e-38 -1.4550561e-37
0002d0 d0 0f 90 80 9f 86 4c 82 45 88 84 82 a9 e4 80 82
       -1.3229984e-38 -1.5026187e-37 -1.9473872e-37 -1.8939154e-37
0002e0 68 ca 82 82 fa 42 8b 82 6c 6d 80 82 2c 9e 8d 82
       -1.9217959e-37 -2.0462657e-37 -1.8870715e-37 -2.0808874e-37
0002f0 51 03 8f 82 4c 6e 20 82 9b f1 5d 82 25 d6 26 82
       -2.1013865e-37 -1.1786597e-37 -1.6305853e-37 -1.225721e-37
000300 54 17 1b 82 c3 4a 27 82 0c 00 2f 82 7d 12 22 82
       -1.1394296e-37 -1.2290678e-37 -1.2856983e-37 -1.1907186e-37
000310 b5 42 d3 81 f8 10 c3 00 24 dc 46 81 64 b9 45 01
       -7.760488e-38 1.7914009e-38 -3.65248e-38 3.6316197e-38
000320 ee b1 0a 01 ee 61 42 81 80 3f e5 80 46 23 c3 02
       2.5474255e-38 -3.5702434e-38 -2.1053108e-38 2.867292e-37
000330 1d 31 0b 82 04 6e cb 82 0e 3c a2 81 50 0a 18 00
       -1.0226202e-37 -2.9891315e-37 -5.9595576e-38 2.207751e-39
000340 cf 78 11 02 36 6e 76 02 26 3d 3a 3d 2f ea 83 3c
       1.0687588e-37 1.8104855e-37 0.045468472 0.016102878
000350 d1 b9 a8 be b8 eb 19 bd 6f 59 69 3e 50 6c 85 3e
       -0.32954267 -0.037578315 0.22788022 0.26059198
000360 ca 60 07 3e df cc 33 3d 62 0c 6a bd f2 be 1a 3e
       0.13220516 0.043896552 -0.057140715 0.15111902
000370 4b 64 11 3d 95 a6 89 bd 2b f7 02 bc fd d9 03 be
       0.035496037 -0.06721226 -0.0079935 -0.12876125
000380 33 d3 de 3a ca cb 18 3e be fb c9 bc 03 56 3b bc
       0.0017000198 0.1492149 -0.024656173 -0.011434081
000390 6d 5b f3 3b 3d 40 27 3e 34 ee 7a 3d 8d fe 0e 80
       0.0074266703 0.16333099 0.061262324 -1.377013e-39
0003a0 f6 2d 3c 01 93 de 3f 81 18 ed 6a 81 c6 b8 31 81
       3.4563122e-38 -3.524085e-38 -4.314912e-38 -3.2642334e-38
0003b0 9e 5e b2 80 cc d1 f4 00 7e 45 36 3d 9d 15 09 3e
       -1.638066e-38 2.2483122e-38 0.044499867 0.13387151
0003c0 43 90 ee bd 05 a9 df 3d 7c d9 c2 3d 03 ec 51 bd
       -0.116486095 0.1092091 0.09514138 -0.05125047
0003d0 61 a3 45 be 73 8a cd 3b 02 49 1b 3e 32 b6 03 be
       -0.19300605 0.006272608 0.15164569 -0.12862471
0003e0 c5 da 43 3d 2a c0 52 3d ad 3d 10 3e 56 8b b9 bb
       0.047816057 0.051452793 0.14086027 -0.005662362
0003f0 16 f3 a2 bd eb 9b 01 3e 7e 29 c8 bd c4 79 be 3c
       -0.07956521 0.12657134 -0.09773539 0.023251422

fc1.bias f4 [200]
000000 ce 4d 68 01 6c dc b3 bd a2 87 50 01 76 70 da bc
       4.2667492e-38 -0.087822765 3.8300878e-38 -0.026664954
000010 75 ac 2b 3e 3d 17 f6 3d ff 04 5f 83 b8 fc bd 82
       0.16765006 0.12016151 -6.5539545e-37 -2.7916107e-37
000020 7c ef eb bd 65 4a 1c 3e 3e 36 bc 3d 19 c4 3a be
       -0.115202874 0.15262754 0.091900334 -0.18238868
000030 1c eb 51 3e aa 3c 60 3e 8f c0 6c bb 42 61 4c 00
       0.20499843 0.21898142 -0.0036125516 7.014387e-39
000040 33 87 96 be 98 6b 2f be b3 d9 49 3b b4 88 cd 83
       -0.29400024 -0.17130888 0.0030799925 -1.2080203e-36
000050 e0 f0 88 82 c5 70 c7 3d a0 6b 51 be 5b 60 44 be
       -2.012166e-37 0.09738306 -0.20451212 -0.19177382
000060 dc f7 b5 82 8d aa 12 be b3 af 51 3e 9b a4 42 3e
       -2.6737824e-37 -0.14322872 0.2047718 0.19008105
000070 88 b1 f9 3d 0c 37 c6 81 86 96 55 3d ed ae 1f 3e
       0.121920645 -7.28127e-38 0.052145503 0.15594073
000080 6c 15 2a 3c 2d 33 28 bc 10 5d 3a be a3 8c f8 b2
       0.010381084 -0.0102661075 -0.18199563 -2.8934954e-08
000090 03 20 93 3e ae 12 e8 3c c5 15 c7 3d cc 72 80 3e
       0.2873536 0.02832922 0.09720949 0.25087583
0000a0 97 47 dc 82 85 4c ff 3c c0 97 49 01 36 43 58 be
       -3.2367185e-37 0.031164417 3.7026745e-38 -0.21119389
0000b0 2e 09 3e bd d8 7a 3c be e2 30 21 be 1e 23 c5 83
       -0.046395473 -0.18406236 -0.15741304 -1.1586682e-36
0000c0 7f 8f 06 bd f3 59 23 3e 50 7f 0f 82 a5 1f 00 bc
       -0.032851692 0.15952282 -1.0542518e-37 -0.007820045
0000d0 90 f2 4f be 1b 36 ed 3d 5c 00 0d 3e 68 58 13 83
       -0.20307374 0.115825854 0.13769668 -4.3300903e-37
0000e0 2e 25 07 be 49 a2 c6 3d 45 b0 01 bc b4 49 4b bd
       -0.13197777 0.09698922 -0.007915561 -0.049630836
0000f0 d5 4a 8d 3d c5 00 4d 3d 02 28 23 3e 82 c0 b3 be
       0.06899039 0.050049562 0.1593323 -0.3510781
000100 9e 17 9f 81 c5 5b 32 be 61 ae 6c 3e 01 a0 0a 3e
       -5.8441265e-38 -0.1741782 0.23113395 0.13537599
000110 e3 36 79 3e b1 2c 9f 3e 86 81 89 3b b4 46 c3 bd
       0.24337344 0.31088784 0.0041963486 -0.0953497
000120 72 01 19 3d 6a 9a 21 be 99 19 47 be ad 1b 21 be
       0.037354894 -0.1578156 -0.19443358 -0.15733214
000130 e5 bb a0 3e a6 21 2c 3d c2 5d 84 3d fe 6f b3 bd
       0.31393352 0.042024277 0.064631954 -0.08761595
000140 92 5b 12 bd ac 22 ce bd 60 ac 82 81 11 90 d9 bb
       -0.03573186 -0.10065207 -4.8001804e-38 -0.0066394885
000150 1f d0 13 be 4e 97 82 3e 34 5c db 00 ae 4f 0d 82
       -0.1443486 0.2550606 2.014505e-38 -1.0381911e-37
000160 6a df 4f 3e 82 bd 3f be b0 9f 08 3e a9 7e bd 83
       0.2030007 -0.18724635 0.13342166 -1.1137501e-36
000170 ee 9b 4d bd 97 a8 0c be 56 e2 81 81 1e e7 1d be
       -0.050197534 -0.13736187 -4.771189e-38 -0.15420195
000180 6f 98 04 3e a5 b7 28 bc 13 5d 74 be b0 d1 90 3d
       0.12948774 -0.0102976905 -0.2386363 0.07071245
000190 c5 fd 81 bd 1e 16 2c be 31 f5 45 3e 76 a0 46 ba
       -0.06347231 -0.16805312 0.19331814 -0.0007577011
0001a0 5a a7 50 82 f7 8c a5 bc 59 0a ea bc 32 d2 6d 3d
       -1.5329454e-37 -0.020208819 -0.028569387 0.058061786
0001b0 34 19 64 be de c1 e0 82 eb 8b 49 3d 42 a4 45 be
       -0.22275239 -3.3025116e-37 0.0492057 -0.1930094
0001c0 28 ed 6c 3d 0d f9 f5 82 98 ff 6d 3d 62 8d 92 3d
       0.057843357 -3.6142463e-37 0.05810508 0.07155873
0001d0 77 f1 c9 bd c8 ab 4e 3e 2a bc 4f 3c 60 5c ee 82
       -0.09860509 0.20182717 0.012679139 -3.5023978e-37
0001e0 d0 2e 7c 3c a0 ea 60 be 1e 97 42 bd fa 90 b7 bd
       0.01539202 -0.21964502 -0.047507398 -0.08963199
0001f0 3b 6c 26 3e 20 ad d6 82 f4 d0 b4 3d 23 0d d0 3d
       0.16252224 -3.1543843e-37 0.08828917 0.10158756
000200 fc c4 34 3d ab d4 a6 bc a4 fd d3 82 7c da d8 01
       0.04413317 -0.02036508 -3.1149246e-37 7.965938e-38
000210 8b 7d 22 bd d3 63 61 3e 70 ef 92 3b 35 2d 1d 3e
       -0.03967051 0.22010736 0.0044841096 0.15349276
000220 d6 b8 b7 b3 35 e3 37 3e f5 b2 78 be c2 e6 05 82
       -8.555223e-08 0.17957766 -0.24287017 -9.837521e-38
000230 dd 98 00 ba 09 ef 26 bd 83 84 c2 3c 58 ff bc 3d
       -0.0004905591 -0.040755305 0.023744827 0.092283905
000240 af 7a 99 81 74 d4 a6 82 f9 0d 1f be 4a 0f 42 3e
       -5.6379366e-38 -2.451345e-37 -0.15532674 0.18951145
000250 e3 10 fd 3d ea 0d 0a bd e1 9f 15 3b 71 fe ae be
       0.123567365 -0.033704676 0.002283089 -0.34178498
000260 1d 4c 04 3e 13 1b 5e bd 35 73 5e 3d 18 80 08 3e
       0.1291966 -0.05422504 0.05430909 0.13330114
000270 14 78 37 3e 5c 10 64 3e ee 89 9e be 36 82 05 3e
       0.179169 0.22271866 -0.30964607 0.13037953
000280 9e 9b 15 3e 66 29 ea 3d 9c 1b 4a 82 18 71 31 be
       0.14610144 0.114336774 -1.484854e-37 -0.17328298
000290 48 0a 61 81 a0 b7 8f be 13 32 3e 3e 93 44 9c 3e
       -4.133335e-38 -0.28069782 0.1857379 0.30521068
0002a0 4c f2 62 be 45 ac 7e be 12 d5 83 3c db dc e4 bb
       -0.22162741 -0.24870403 0.01609281 -0.006984336
0002b0 be 29 c4 bd 38 6c 39 be d9 ca 45 3e c1 1d 84 3e
       -0.09578274 -0.18107688 0.19315661 0.2580395
0002c0 d9 29 46 3e f5 86 42 ba d6 6a a4 bd 24 3e 6e 3e
       0.19351901 -0.0007420623 -0.0802819 0.23265892
0002d0 db 8e 28 3c f8 fe 02 3e 24 21 5f 3e bf 36 1f 3d
       0.010287966 0.12792575 0.21789986 0.03887057
0002e0 c8 ab 2c be 7b bb 92 83 a8 46 73 3e e6 3b 2b 3e
       -0.16862404 -8.624152e-37 0.23757422 0.16722068
0002f0 86 ea 5c be ca c3 99 be 42 8b 46 82 2c 8d 9b bc
       -0.21573839 -0.30032188 -1.4586708e-37 -0.018988214
000300 77 4a 1e be 20 d6 5a be 27 a2 29 be 33 30 b7 3d
       -0.15458094 -0.21370745 -0.16565762 0.0894474
000310 cc b2 2b bd 83 a2 1e be 04 96 1c 3d 2c d2 91 82
       -0.04191856 -0.15491681 0.038229004 -2.1426468e-37

fc2.weight f4 [2, 200]
000000 e8 15 20 82 1d 4f 86 3f 71 77 0e 02 72 3a 03 3f
       -1.176123e-37 1.0492893 1.046679e-37 0.51261055
000010 a0 88 0d be e4 90 4f be 39 f7 93 ad 12 af 1a 03
       -0.1382165 -0.20270115 -1.6821754e-11 4.5457503e-37
000020 ff a0 0a 3f af 3d 80 bd 29 e0 b5 be 4b 09 2a 3e
       0.5415191 -0.06261765 -0.35522583 0.16605107
000030 85 6e 86 be 9a 1d 90 be 46 59 9d 3e 3e 8a 04 82
       -0.26256195 -0.28147584 0.30732173 -9.737502e-38
000040 8a 48 e9 3d a5 7d 10 3e 0b 02 0a be 0a 45 04 38
       0.11390789 0.1411043 -0.13477342 3.153555e-05
000050 31 b8 aa 81 02 45 2b 3f e5 cf 72 3d 50 e7 e4 3e
       -6.271244e-38 0.6690217 0.059280295 0.44707727
000060 7d 3f 35 03 eb ba 6c 3d 8b c4 af be a5 52 3f be
       5.3264e-37 0.057795446 -0.34329638 -0.1868387
000070 c5 21 9f be d8 bd c1 01 34 03 99 3e 56 cd 7d bd
       -0.31080452 7.1169415e-38 0.29885256 -0.0619634
000080 79 85 99 3d d4 84 1d 3e 37 4c 8c 3e 53 b9 a8 b9
       0.07496161 0.15382701 0.27401897 -0.00032181534
000090 a3 b5 4f 3e e9 c9 c1 3d ae f6 0b bd 3a f7 bc 3e
       0.20284133 0.094623394 -0.0341708 0.3690737
0000a0 b4 72 5c 03 e4 a9 f8 bd fe 91 13 82 c6 17 43 3f
       6.478386e-37 -0.12141779 -1.0841752e-37 0.7620815
0000b0 f0 76 99 3e b5 25 5a 3f 89 8d 4b 3e 49 e3 af b4
       0.29973555 0.85213786 0.1987821 -3.2761662e-07
0000c0 c4 dd 3c be cc 62 5a bd e8 be 2f 82 05 17 60 3e
       -0.18443972 -0.053316876 -1.2911757e-37 0.21883781
0000d0 3a d4 f8 3d ef 86 b4 be 37 c8 c3 bc 17 47 87 03
       0.12149854 -0.35259196 -0.02389918 7.950908e-37
0000e0 e2 bd ae 3e b8 38 8b be 14 78 d9 3c 20 3a 8e 3f
       0.34129244 -0.2719171 0.026546516 1.1111488
0000f0 77 9b a3 3e ae 83 c1 be 89 8a 38 bd 04 95 a2 3e
       0.31954548 -0.37795776 -0.045053992 0.31754315
000100 c6 1e 99 81 df d6 1d 3e 48 b5 46 bd 75 00 25 3e
       -5.624748e-38 0.15413998 -0.048512727 0.16113456
000110 f1 0a 9b bd 5f ad e6 bd 78 52 52 be 9a 1f 37 3e
       -0.07570446 -0.11263537 -0.20539272 0.17883149
000120 e5 b8 75 bd c9 bb 7c 3e 24 eb 3b 3f c1 cf 41 3d
       -0.059990782 0.2468101 0.7340567 0.04731727
000130 a7 b6 94 3e fe 89 39 be 0a e0 27 be a6 f0 89 3d
       0.29045603 -0.18119046 -0.16394058 0.06735353
000140 6e 3b 22 3f b9 de 66 3e 42 43 16 02 ac 5d 69 3e
       0.6337193 0.225459 1.1039562e-37 0.22789639
000150 2a e8 bc 3e 4c e9 50 3e 94 a9 93 02 2e e3 99 81
       0.36895877 0.20401496 2.1697042e-37 -5.652931e-38
000160 87 31 24 bd 8c 38 17 3f 43 f8 c5 be 90 80 fe 88
       -0.040086295 0.5907066 -0.3866597 -1.5317294e-33
000170 06 2e 02 3e 8e 6c e1 3d b3 df 92 00 ea 4b 90 3d
       0.12712869 0.11007033 1.348823e-38 0.070457295
000180 50 75 bc bd cb cb 8a 3e c6 42 98 3e a5 3e 30 3e
       -0.09202063 0.27108607 0.29738444 0.17211397
000190 98 9f 55 3d d6 a1 14 3f 08 01 d3 3d 3f 25 b7 3e
       0.052154154 0.5805944 0.10302931 0.35770604
0001a0 db 26 96 82 3c a4 d8 3e a4 04 9e 3e 71 ac 4b 3e
       -2.206282e-37 0.423128 0.30862916 0.1989
0001b0 34 be a5 3d cb 9c 7c 82 da 03 6d bd d4 a0 39 3e
       0.08092919 -1.8559033e-37 -0.057865 0.18127757
0001c0 fb 78 96 3d 81 be 70 03 7c 86 8e 3f b0 36 48 be
       0.07347294 7.074835e-37 1.1134791 -0.19552112
0001d0 5f c8 42 be 99 d6 8b be 61 fd d6 3e b9 7c b9 02
       -0.19021748 -0.27312163 0.41990188 2.7254894e-37
0001e0 02 54 b5 3d 96 56 28 3e cd be 40 3e e2 5d 11 3f
       0.08853914 0.1643928 0.18822785 0.5678388
0001f0 05 4a 41 3e 7a 06 41 83 73 66 99 bd 7f be e3 3e
       0.18875892 -5.6725037e-37 -0.07490244 0.44481274
000200 80 92 9b 3f 72 f8 b3 be 3e eb 43 03 26 fc 4c 02
       1.2154083 -0.35150486 5.7575394e-37 1.5059916e-37
000210 95 d5 42 3d 09 99 dc bd f6 32 aa bc 33 19 e1 bd
       0.04756697 -0.10771377 -0.020776253 -0.109911345
000220 89 bb 8b b8 17 cb 86 3e 53 37 4b 3e 8a 35 59 02
       -6.662968e-05 0.2632682 0.19845323 1.5958007e-37
000230 ec 4b dd 38 bf 57 24 3f d9 8f 12 3e a5 7a f5 3d
       0.00010552243 0.6419639 0.14312686 0.11986283
000240 f9 c2 1a 02 79 41 db 82 ed 2f 31 3e e4 32 d6 3e
       1.1370088e-37 -3.2216737e-37 0.17303438 0.418357
000250 d7 87 a5 be e4 ad 12 3f fd 93 96 3f 2c b2 d6 3d
       -0.323302 0.57296586 1.1763912 0.10483202
000260 da 8d dc be 01 67 6e 3e 71 ac 46 3e 48 fe 30 3e
       -0.43076974 0.2328148 0.19401719 0.172845
000270 9d 09 17 bd b7 de f0 bd bb e6 65 3e 52 2c 0f bf
       -0.036874402 -0.117612295 0.22451298 -0.55927
000280 84 04 c6 3e 62 02 a6 bd 9c c8 c9 81 b2 c0 b0 3e
       0.3867532 -0.08105923 -7.41236e-38 0.34522015
000290 6e d0 d0 81 f9 91 43 3e d5 f7 d3 3d a0 38 93 3e
       -7.6706215e-38 0.19098653 0.103500046 0.2875414
0002a0 c2 5c 33 3e 50 49 9a 3e a1 d8 32 3e eb 5c 17 3f
       0.17515853 0.30134058 0.1746545 0.59126157
0002b0 a6 c5 ba 3e d4 04 0c 3f 23 a3 58 3e e7 98 54 be
       0.3647892 0.5469487 0.21155982 -0.20761453
0002c0 58 3d 53 3e 01 be 06 ba 61 30 a1 3d da c6 9c be
       0.2062887 -0.0005140007 0.07870556 -0.30620462
0002d0 79 de 13 be 02 23 0c bd 1a 7b 67 3e 76 8c ba 3f
       -0.14440335 -0.034213074 0.22605553 1.4574115
0002e0 af f6 71 3d 64 16 07 a7 06 f1 74 be cd a6 f2 bd
       0.059073146 -1.8747152e-15 -0.23920068 -0.11848221
0002f0 8a 6f 4c 3f fd 79 28 3f 50 e2 b8 82 dc cf c2 3d
       0.79857695 0.6581114 -2.7166267e-37 0.09512302
000300 e8 97 58 3f 48 9a 3e 3f ba bb 08 3e b9 b5 76 be
       0.8460679 0.74454165 0.13352862 -0.24092759
000310 88 0d 1e 3e 49 57 32 3f c5 dc 29 bd 1d 84 02 03
       0.1543485 0.69664437 -0.041470308 3.8355225e-37
000320 3f 35 25 02 50 11 86 bf 37 71 10 82 0c 5e e2 be
       1.2137566e-37 -1.0474033 -1.061194e-37 -0.44212377
000330 3a c6 03 3e 3d fb 8e 3e 46 f7 93 2d 43 4f 1f 03
       0.12868586 0.27926055 1.6821777e-11 4.681689e-37
000340 36 a6 e8 be 6c b8 9d 3b 04 e0 af 3e a4 7c da bd
       -0.4543931 0.0048132446 0.34350598 -0.106683046
000350 d0 f0 a1 3e 7d 76 96 3e 84 7c 85 be c6 5d 23 02
       0.31629038 0.29387274 -0.2607156 1.200226e-37
000360 e2 a8 8f bd 22 3b ce bd e0 ae 27 3d 0e 45 04 b8
       -0.07014634 -0.100698724 0.04093826 -3.1535565e-05
000370 82 93 bf 01 58 e3 28 bf 65 e1 c0 bc ae 2a 02 bf
       7.037398e-38 -0.659719 -0.023544976 -0.50846374
000380 7b 1d 37 83 cf ef b6 bd 89 a9 c2 3e 27 03 50 3e
       -5.381271e-37 -0.089324586 0.3801997 0.20313703
000390 67 3e a9 3e 3c 1f c3 81 72 5b 81 be 45 99 2d 3d
       0.33055422 -7.1676506e-38 -0.2526508 0.042382497
0003a0 ee 8d c0 bd 44 9c 10 be c7 8c c7 be 32 8e c3 b9
       -0.09402071 -0.1412211 -0.38974592 -0.00037299242
0003b0 52 b1 59 be c0 9b 18 be c3 ed b4 3d 98 d5 7d be
       -0.21259049 -0.14903164 0.08834412 -0.24788511
0003c0 8b ac 67 03 17 df 2f 3d 4c 25 0d 02 a3 b8 45 bf
       6.808287e-37 0.042937364 1.0369748e-37 -0.7723486
0003d0 18 ab a3 be 7e 29 65 bf 9b 97 34 be 44 e3 af 34
       -0.31966472 -0.8951644 -0.17635958 3.2761648e-07
0003e0 f5 d7 52 3e 52 04 01 3d c8 ba 1e 02 1a 0d 6d be
       0.20590194 0.03149826 1.166161e-37 -0.23149529
0003f0 2a a8 0f be 1e 8b bc 3e ab bb f3 3c 90 43 81 03
       -0.14028993 0.36824888 0.029752573 7.59745e-37

fc2.bias f4 [2]
000000 a0 e5 ff bd 63 ae 1d 3e
       -0.12494969 0.15398555

exp_avg f4 [50, 1, 8]
000000 b8 30 34 ba f5 49 7c ba 20 42 42 ba 35 f6 6a ba
       -0.0006873715 -0.00096240576 -0.0007410366 -0.00089630793
000010 5a bc 32 ba 1b 40 48 ba 58 3b 46 ba d4 d6 15 ba
       -0.00068182277 -0.0007638947 -0.00075619435 -0.0005715911
000020 57 0b 63 38 8e 86 44 38 6d 4f 4c 38 6c cb 5a 38
       5.413158e-05 4.6855355e-05 4.871136e-05 5.21647e-05
000030 d4 25 56 38 03 ca 65 38 30 ba 6b 38 31 58 81 38
       5.1056806e-05 5.4785993e-05 5.6201767e-05 6.167626e-05
000040 84 02 00 80 d4 02 00 80 d4 02 00 80 10 03 00 80
       -9.02e-43 -1.015e-42 -1.015e-42 -1.099e-42
000050 e8 02 00 80 fc 02 00 80 e8 02 00 80 d4 02 00 80
       -1.043e-42 -1.07e-42 -1.043e-42 -1.015e-42
000060 b0 fe 15 3b 55 6d 10 3b 25 dd 19 3b 3f 14 16 3b
       0.0022887401 0.0022037823 0.002347776 0.0022900251
000070 e5 fa 1a 3b df 20 1a 3b 3b 8d 15 3b 5f fd 0c 3b
       0.002364808 0.0023518128 0.0022819776 0.0021513326
000080 3a 70 e2 b9 31 6b 00 ba 3d 51 12 ba 68 2d 31 ba
       -0.00043189694 -0.0004898785 -0.00055815635 -0.000675878
000090 49 89 09 ba 02 b1 14 ba 30 6c dd b9 28 b3 9b b9
       -0.00052465923 -0.0005672128 -0.0004223301 -0.00029697386
0000a0 60 03 00 80 88 03 00 80 7e 03 00 80 60 03 00 80
       -1.211e-42 -1.267e-42 -1.253e-42 -1.211e-42
0000b0 7e 03 00 80 38 03 00 80 6a 03 00 80 a6 03 00 80
       -1.253e-42 -1.155e-42 -1.225e-42 -1.309e-42
0000c0 a1 7a a3 b5 7f 26 90 b6 08 a8 e3 36 a9 28 00 b7
       -1.2180136e-06 -4.296016e-06 6.7846886e-06 -7.6388615e-06
0000d0 d1 22 ea b6 96 70 14 b7 63 dd fd b6 95 15 30 b7
       -6.9777966e-06 -8.847701e-06 -7.5657604e-06 -1.0495442e-05
0000e0 80 5f 5d 3a 05 b3 15 3a ab 66 44 3a 35 fc 0a 3a
       0.00084447116 0.0005710575 0.00074921054 0.0005301864
0000f0 2a 91 58 3a b3 77 15 3a 2a 21 1e 3a 7f 35 33 3a
       0.0008261377 0.00057017355 0.00060321635 0.00068362796
000100 1a 18 1f ba 1c d4 20 ba 2f 5b 10 ba 3b e9 33 ba
       -0.000606896 -0.00061351224 -0.00055067515 -0.0006863062
000110 2c 53 fd b9 cc 6c 15 ba 7b 5b 12 ba a2 09 31 ba
       -0.00048317888 -0.0005700111 -0.00055830897 -0.00067534496
000120 b2 c3 31 ba 98 9d 43 ba 32 a0 40 ba f8 dd 62 ba
       -0.0006781175 -0.0007462143 -0.000734809 -0.0008654292
000130 82 aa 3e ba 7f ce 54 ba d5 3b 4f ba b9 7a 64 ba
       -0.00072733324 -0.00081179285 -0.0007905339 -0.0008715797
000140 78 e0 1d 3a ef 15 1a 3a 31 c2 8f 39 7e 44 df b8
       0.0006022523 0.0005877902 0.0002741977 -0.00010646226
000150 ba d6 4a 3a 06 d3 ea 39 78 35 49 3a 6e 9d 61 39
       0.0007737685 0.00044789183 0.0007675509 0.00021516319
000160 a0 f3 ff b9 e2 0d 54 ba e2 3d 1c ba e3 e5 2c ba
       -0.00048818905 -0.0008089227 -0.0005960149 -0.0006595535
000170 d5 70 02 ba 0b db 25 ba 8f 97 24 ba b1 7c 0f ba
       -0.000497592 -0.00063268904 -0.00062786875 -0.00054735976
000180 a6 88 b8 bb ca 54 ae bb 27 08 c2 bb 62 8e c7 bb
       -0.005631524 -0.0053201662 -0.005921382 -0.0060899714
000190 a9 dd ad bb 92 dc ae bb 62 d7 b9 bb b9 c7 c8 bb
       -0.005305965 -0.0053363526 -0.0056714276 -0.0061273244
0001a0 d3 23 15 3a f3 8a ad 39 58 a6 9b 39 03 7d 52 38
       0.0005689237 0.00033100657 0.0002968784 5.0184328e-05
0001b0 cc 08 6e 39 ce b0 94 b7 e9 22 f6 38 ca bb 8d 38
       0.00022700726 -1.7725306e-05 0.000117366966 6.7583824e-05
0001c0 e0 0e d4 3a a5 9d d0 3a 7a 04 dd 3a 9f e6 dd 3a
       0.001617875 0.0015916122 0.0016862296 0.0016929692
0001d0 0d 31 de 3a 60 9d d9 3a d7 32 d2 3a 7a 90 c4 3a
       0.0016951874 0.0016602688 0.001603688 0.0014996671
0001e0 92 02 b3 39 6d fd 97 39 e7 ed 9a 39 2b aa 95 39
       0.00034143456 0.0002898978 0.0002955042 0.0002854628
0001f0 e5 69 9c 39 e5 c0 cd 39 17 94 c6 39 07 d5 ac 39
       0.00029833536 0.00039244365 0.00037875838 0.00032965114
000200 4c 0d 00 80 56 0d 00 80 e8 0c 00 80 56 0d 00 80
       -4.77e-42 -4.784e-42 -4.63e-42 -4.784e-42
000210 42 0d 00 80 58 0b 00 80 44 0b 00 80 26 0b 00 80
       -4.756e-42 -4.07e-42 -4.041e-42 -4e-42
000220 39 e6 3c b9 d8 99 e1 b9 3b b2 ac b9 a2 4d 9a b9
       -0.00018014842 -0.00043029967 -0.00032939189 -0.0002943101
000230 7f 86 92 b8 3b 4d 56 b9 6f db 0f b9 f5 df 32 b9
       -6.986874e-05 -0.00020437401 -0.00013719288 -0.00017058833
000240 9b a0 c8 3b fc 72 d2 3b dd 14 d7 3b 57 eb d7 3b
       0.0061226613 0.0064223986 0.0065637664 0.006589334
000250 a6 ef d6 3b 7e a0 d5 3b 92 15 d6 3b 21 f6 d4 3b
       0.00655933 0.0065193763 0.006533333 0.0064990674
000260 0e 01 ee bb b1 82 ee bb 55 70 f0 bb 04 4e f1 bb
       -0.0072633093 -0.007278763 -0.00733761 -0.0073640365
000270 75 a8 ea bb c5 72 ea bb 12 cf ea bb c0 69 f4 bb
       -0.007161195 -0.007154795 -0.007165798 -0.0074588954
000280 71 75 18 bb 34 b7 02 bb c7 0f 18 bb 42 d5 29 bb
       -0.002326336 -0.0019945623 -0.0023202763 -0.0025914465
000290 1f ff 0f bb 31 15 12 bb f8 2d 12 bb eb f8 1c bb
       -0.0021972132 -0.0022290463 -0.0022305232 -0.0023952078
0002a0 5d 6e 23 bb ab 6a 04 bb d6 72 d2 ba 74 01 ac ba
       -0.0024937608 -0.002020518 -0.0016055952 -0.0013122992
0002b0 ee 52 ab ba ef 72 a9 ba 69 9d 94 ba 58 6e 74 ba
       -0.001307098 -0.001292793 -0.0011338416 -0.0009324304
0002c0 fe 8d e9 bb d8 7b f4 bb b4 94 e4 bb 63 64 f7 bb
       -0.0071275225 -0.0074610524 -0.0069757346 -0.007549809
0002d0 94 05 f5 bb 9b 17 f2 bb da df f8 bb ad 3f f9 bb
       -0.0074774716 -0.007388068 -0.0075950446 -0.0076064677
0002e0 43 79 07 3a 96 59 ec 39 61 95 00 3a 6f 14 8e 39
       0.0005167911 0.00045080174 0.00049050717 0.00027099575
0002f0 58 ce e2 39 e3 d4 80 39 14 70 f8 39 e0 a1 c2 39
       0.00043259817 0.00024572675 0.0004738575 0.0003712317
000300 e6 e1 54 bb 9d af 72 bb 0b 03 57 bb 1b 96 7b bb
       -0.0032483279 -0.0037030943 -0.003280821 -0.003838903
000310 e8 27 4d bb 8e 13 77 bb 94 00 60 bb d8 23 72 bb
       -0.0031304304 -0.0037700864 -0.0034180032 -0.0036947634
000320 5a f8 dc b8 cc 5f f6 b8 a5 a3 d9 b8 00 e5 d3 b8
       -0.000105366766 -0.00011748038 -0.000103778475 -0.000101039186
000330 ec 8e d7 b8 bb 9d cf b8 23 e0 bc b8 cd f3 f9 b8
       -0.0001027862 -9.899909e-05 -9.006287e-05 -0.00011918657
000340 b6 44 83 b8 e7 4a b7 b9 08 a3 55 b9 c0 fc 24 b9
       -6.259365e-05 -0.00034960287 -0.00020373997 -0.00015734416
000350 30 64 18 38 ab 1f 94 b8 17 c9 7f 35 63 6a 9d b7
       3.633293e-05 -7.0630886e-05 9.5287527e-07 -1.8765399e-05
000360 92 60 b6 ba 9f 7a b5 ba 66 9c af ba 8e 7c b9 ba
       -0.0013914278 -0.0013845748 -0.0013398051 -0.00141515
000370 86 03 b6 ba 39 6c c5 ba 7b 52 c4 ba 18 52 c5 ba
       -0.0013886548 -0.001506216 -0.0014978194 -0.0015054373
000380 24 88 fd 38 f0 d3 f5 b7 1c 03 5c 38 b0 87 1c b9
       0.00012089338 -2.9304967e-05 5.2454983e-05 -0.00014927867
000390 90 bd de 36 f3 1f 7f b9 42 d3 c3 b7 04 4a d4 b8
       6.6381835e-06 -0.00024330597 -2.3344186e-05 -0.00010122734
0003a0 53 24 19 38 47 ce fa 37 7f 46 eb 37 2b 01 df 37
       3.6511872e-05 2.9898378e-05 2.804701e-05 2.6584215e-05
0003b0 8a 23 c9 37 b0 bc c3 37 2d 44 d7 37 3b 92 dd 37
       2.3977616e-05 2.3333676e-05 2.5661744e-05 2.6413347e-05
0003c0 4b 66 9b bb 00 fe 9b bb d0 60 9e bb 5d 3c 9e bb
       -0.004742419 -0.004760504 -0.0048333183 -0.004828973
0003d0 28 ee 94 bb 91 93 96 bb 42 9c 96 bb df a1 9b bb
       -0.004544992 -0.004595228 -0.004596264 -0.004749521
0003e0 93 bb ab 3b 26 d7 b1 3b f4 03 9a 3b 6f 0c 94 3b
       0.0052408664 0.005427259 0.0047001783 0.0045180838
0003f0 6e 6b bb 3b fd 56 b8 3b 5e b1 ba 3b 2f 89 92 3b
       0.0057195937 0.005625604 0.0056974133 0.00447192
