cait/resources/cnn-clf-binary-v0.ckpt (torch, 237353 bytes, 24 tensors)

exp_avg f4 [50, 1, 8]
0	0xb926793f	-0.00015876161
1	0xb8f1bda6	-0.000115271
2	0xb902b3f5	-0.00012464805
3	0xb8efb746	-0.000114305454
4	0xb9614ef7	-0.00021487089
5	0xb994606c	-0.000283006
6	0xb981cf96	-0.0002475946
7	0xb9310e91	-0.00016885462
8	0x3ad0df1a	0.001593563
9	0x3ab08f30	0.0013470408
10	0x3a900c5e	0.0010990014
11	0x3a867d13	0.0010260664
12	0x3a68c599	0.0008879542
13	0x3a43c13a	0.00074674527
14	0x3a724fac	0.00092434394
15	0x3a8b035a	0.0010605857
16	0x3a80c81d	0.0009825263
17	0x3a470c8a	0.0007593116
18	0x3a00c119	0.00049115863
19	0x39b5f95a	0.00034708792
20	0x393e07c5	0.00018122706
21	0xb621b454	-2.4095834e-06
22	0x39388d08	0.00017600146
23	0x39c555d6	0.0003763872
24	0x3b1b90e9	0.0023737496
25	0x3b077c97	0.0020673627
26	0x3ad2bd85	0.001607821
27	0x3ab1acee	0.0013555565
28	0x3a9c7ca7	0.0011939005
29	0x3a99268c	0.0011684461
30	0x3ab30d82	0.0013660642
31	0x3adbfb5e	0.0016783287
32	0x3a9fd14a	0.001219311
33	0x3a810df0	0.0009846073
34	0x3a5cdcd4	0.000842524
35	0x3a8033b5	0.0009781035
36	0x3a8df208	0.0010829577
37	0x3a88782f	0.0010411794
38	0x3a9b4a32	0.0011847673
39	0x3a9c21f9	0.001191198
40	0x3a6cfb67	0.00090401474
41	0x3a3b68c0	0.0007149093
42	0x39f74475	0.00047162516
43	0x3984e33e	0.0002534631
44	0x38fdceed	0.00012102523
45	0x38e64391	0.0001097984
46	0x39b68a35	0.00034816717
47	0x39d799be	0.00041122542
48	0x3aba648b	0.0014220638
49	0x3ab39a9d	0.0013702695
50	0x3ab9427b	0.0014134193
51	0x3ab15d0c	0.0013531758
52	0x3aa6f6d4	0.0012738355
53	0x3a7ae789	0.00095712446
54	0x3a41a12c	0.0007386382
55	0x3a2bbcc2	0.00065512594
56	0x33158ab8	3.481793e-08
57	0xb1a64e4d	-4.8401376e-09
58	0x2ca03b62	4.5540663e-12
59	0xa5aee662	-3.0340302e-16
60	0xb35569fa	-4.9689312e-08
61	0x1be0c443	3.7184523e-22
62	0x1c9e3fce	1.0472056e-21
63	0xaf8d68e9	-2.5722294e-10
64	0x3aef4c8c	0.0018257066
65	0x3ada33c7	0.0016647511
66	0x3ab7af44	0.0014014025
67	0x3a95f61d	0.0011441145
68	0x3a8338e0	0.0010011457
69	0x3a716e4a	0.0009209855
70	0x3a91aad2	0.001111353
71	0x3aa19aba	0.0012329437
72	0x3a209380	0.0006125495
73	0x39f950d0	0.0004755319
74	0x3999a1e8	0.00029303064
75	0x396f1217	0.00022799555
76	0x39119387	0.00013883236
77	0x390ca763	0.00013413797
78	0x3938cf22	0.0001762477
79	0x3983351a	0.0002502583
80	0xb8665d70	-5.4923294e-05
81	0xba436747	-0.0007454049
82	0xbac3bd25	-0.0014933689
83	0xbac965a9	-0.001536538
84	0xbab3492b	-0.0013678422
85	0xba831f89	-0.0010003905
86	0xba630102	-0.0008659513
87	0xba405407	-0.000733674
88	0x39882cea	0.00025973405
89	0x39857de7	0.0002546154
90	0x39852c9e	0.0002540098
91	0x3972b58a	0.00023146547
92	0x3987ecb1	0.00025925555
93	0x39927d3d	0.000279406
94	0x3957fde6	0.00020598582
95	0x393e72f3	0.00018162634
96	0xb85ee1a0	-5.3139054e-05
97	0xb8451fee	-4.6998197e-05
98	0xb6753465	-3.6538343e-06
99	0x356a7408	8.734064e-07
100	0x3601e376	1.9354898e-06
101	0x35692f13	8.6867766e-07
102	0x34e81b2c	4.3233138e-07
103	0x335d8a51	5.158137e-08
104	0x3a28e8f9	0.0006443407
105	0x39f4658a	0.0004661496
106	0x39a78f40	0.00031959452
107	0x3939aade	0.00017706628
108	0x3846742d	4.7315076e-05
109	0xb76ff581	-1.4302671e-05
110	0x38b6806e	8.702358e-05
111	0x3995a796	0.00028544356
112	0x3c03e1c7	0.008049435
113	0x3c0416b6	0.008062055
114	0x3c000ec3	0.0078160195
115	0x3bfd3f99	0.0077285287
116	0x3be85e21	0.007091299
117	0x3bbe665e	0.005810543
118	0x3bb08ace	0.0053876406
119	0x3bacc767	0.005272794
120	0xba09e0fe	-0.00052596617
121	0xb9f829b6	-0.00047333323
122	0xb9b75d8e	-0.00034974184
123	0xb97a337b	-0.00023861036
124	0xb98c3456	-0.00026741874
125	0xb9e5cacc	-0.0004382938
126	0xba041ba9	-0.0005039522
127	0xb9dd6a5e	-0.00042231655
128	0x39fda493	0.00048378538
129	0x39d40784	0.0004044139
130	0x39e2c56b	0.00043253167
131	0x3a0884bb	0.00052077667
132	0x3a0dc58a	0.0005408159
133	0x3a0fe293	0.0005488779
134	0x3a0f4faf	0.0005466891
135	0x3a26eca8	0.0006367662
136	0xb8d1d2e8	-0.00010005181
137	0xb97cd974	-0.000241136
138	0xb9a9d84e	-0.0003239535
139	0xb953d7c7	-0.00020202911
140	0xb8d5ea71	-0.000102002996
141	0xb803dcf7	-3.1438623e-05
142	0xb810bf31	-3.4510336e-05
143	0xb88ca757	-6.70689e-05
144	0x3a7e0a4e	0.00096908666
145	0x3a66f0cd	0.0008809686
146	0x3a437c28	0.00074571604
147	0x3a311438	0.0006755027
148	0x3a0d662d	0.00053939485
149	0x39987b01	0.00029083344
150	0x39e6b060	0.00044000428
151	0x3a1a2b83	0.00058811175
152	0xba34d235	-0.00068977784
153	0xba8f495e	-0.0010931899
154	0xba9016bc	-0.0010993103
155	0xba2a8ff1	-0.00065064343
156	0xb9e63edd	-0.00043915855
157	0xb94e1457	-0.00019653268
158	0xb9737096	-0.00023216227
159	0xb8d65223	-0.00010219614
160	0xb95ebdc2	-0.0002124226
161	0xb9dd4db4	-0.00042210298
162	0xba0f3b2d	-0.0005463835
163	0xb9be56a3	-0.00036304173
164	0xb99aeea3	-0.00029550967
165	0xb8f3606a	-0.000116051015
166	0xb8dba269	-0.00010472985
167	0x374157d7	1.1524148e-05
168	0xb8a2e53b	-7.7674595e-05
169	0xb868a982	-5.5470977e-05
170	0xb8c29742	-9.278815e-05
171	0xb8ed5e43	-0.00011318598
172	0xb8faba4b	-0.00011955629
173	0xb8f69479	-0.00011757849
174	0xb904b3c4	-0.00012655469
175	0xb90cc438	-0.00013424538
176	0x3a30674e	0.0006729261
177	0x3a1d77f0	0.0006006947
178	0x3a09a317	0.00052504375
179	0x39f63ae6	0.0004696466
180	0x39cfd570	0.0003964114
181	0x39a48477	0.00031379212
182	0x3a030248	0.00049975934
183	0x3a33ca8e	0.0006858491
184	0x3930c855	0.00016859297
185	0x392fd173	0.00016767326
186	0x391c105f	0.00014883418
187	0x3936088a	0.00017360054
188	0x391bf1ca	0.00014872025
189	0x390921c8	0.00013077923
190	0x38be53b5	9.075498e-05
191	0x38882b22	6.4930195e-05
192	0x3a01ba69	0.0004948737
193	0x3a060cf1	0.0005113623
194	0x3a04d19c	0.00050666346
195	0x39dbc691	0.0004191888
196	0x39b231cd	0.0003398791
197	0x398715a1	0.0002576532
198	0x39b2fdf9	0.0003414003
199	0x39a48ba1	0.0003138455
200	0x3aaac5ef	0.001302896
201	0x3a867af5	0.0010260033
202	0x3a3b9c97	0.00071568176
203	0x3a26d2ec	0.0006363827
204	0x3a0d98fc	0.00054015196
205	0x39e4549d	0.0004355059
206	0x3a2d9eb6	0.0006623076
207	0x3a38f14f	0.0007055001
208	0x3b0a7a6e	0.0021130103
209	0x3b0ed7aa	0.0021796026
210	0x3b19c0e8	0.0023460928
211	0x3b1a642c	0.0023558242
212	0x3b12b85a	0.0022387714
213	0x3af2669f	0.0018493718
214	0x3ad6578f	0.0016352999
215	0x3ac9cfbf	0.0015396996
216	0xb9363a53	-0.000173786
217	0xb99c8b87	-0.00029858595
218	0xba003d75	-0.00048919703
219	0xba055baf	-0.0005087209
220	0xba363b60	-0.00069515966
221	0xba5060b4	-0.000794898
222	0xba28aefd	-0.00064347667
223	0xba02c65e	-0.00049886655
224	0xb9b3d96b	-0.0003430353
225	0xb9b966bd	-0.00035362496
226	0xb9f0786a	-0.00045866083
227	0xb9d1a2ea	-0.00039984967
228	0xb9e8c60c	-0.00044398045
229	0xba042fde	-0.0005042533
230	0xb9d5e658	-0.00040798145
231	0xb9c06351	-0.0003669509
232	0xb07d66c7	-9.218692e-10
233	0x9e045fd2	-7.007837e-21
234	0xa020bad9	-1.361435e-19
235	0x1ec6d5d5	2.1052504e-20
236	0x2e26490b	3.7808905e-11
237	0x9b4541eb	-1.6316757e-22
238	0xb31bd0e4	-3.6278735e-08
239	0x1f0003ed	2.7108302e-20
240	0x3ab8e89f	0.0014107412
241	0x3abf4337	0.0014592175
242	0x3ab16abe	0.001353584
243	0x3aac6355	0.0013152162
244	0x3a988a29	0.0011637855
245	0x3a7bc9a0	0.00096049346
246	0x3a7dda20	0.0009683687
247	0x3a90cc69	0.0011047247
248	0x3aaa7115	0.0013003672
249	0x3a93fa88	0.0011289874
250	0x3a73c4f3	0.0009299062
251	0x3a7c33a6	0.00096207333
252	0x3a5c6745	0.00084077223
253	0x3a63d6bd	0.0008691361
254	0x3a899f62	0.001049977
255	0x3aa50ac7	0.0012591713

exp_avg_sq f4 [50, 1, 8]
0	0x36429fd6	2.900129e-06
1	0x363d462b	2.8204038e-06
2	0x36382e85	2.7445215e-06
3	0x363671dd	2.718639e-06
4	0x36334e9e	2.671884e-06
5	0x36380fd0	2.742734e-06
6	0x363955f0	2.761717e-06
7	0x363ee010	2.8442628e-06
8	0x36acce9f	5.1500533e-06
9	0x36aad40c	5.0910803e-06
10	0x36ae13e8	5.1879215e-06
11	0x36ab89a5	5.112221e-06
12	0x36ae1331	5.1878383e-06
13	0x36b404e5	5.364988e-06
14	0x36b192d9	5.2921064e-06
15	0x36ab2c8e	5.101384e-06
16	0x379e63e0	1.8881576e-05
17	0x379ed8df	1.8936056e-05
18	0x37a12153	1.9208213e-05
19	0x37a13321	1.9216504e-05
20	0x37a2f8d5	1.9427776e-05
21	0x37a3d3ad	1.9529683e-05
22	0x37a36502	1.947815e-05
23	0x37a03d05	1.91019e-05
24	0x37aedd3e	2.084544e-05
25	0x37ab7c9c	2.0442814e-05
26	0x37a8fe3a	2.0145544e-05
27	0x37a7924f	1.9976082e-05
28	0x37a8c80a	2.0120311e-05
29	0x37a9fbdf	2.0263657e-05
30	0x37aa6c70	2.0316074e-05
31	0x37a786e4	1.9970765e-05
32	0x36930561	4.3815676e-06
33	0x3699fdee	4.5893166e-06
34	0x369d925c	4.696003e-06
35	0x3698d6d9	4.5549646e-06
36	0x3697b979	4.5217425e-06
37	0x3698c465	4.5528163e-06
38	0x36980ae2	4.53122e-06
39	0x3695d5b8	4.465426e-06
40	0x37ee2c6f	2.8392502e-05
41	0x37e914df	2.7785483e-05
42	0x37e721cf	2.755309e-05
43	0x37e7800d	2.7596974e-05
44	0x37e754f4	2.7576905e-05
45	0x37e41334	2.718866e-05
46	0x37e108c7	2.6826177e-05
47	0x37dd3d85	2.63739e-05
48	0x388f8deb	6.845206e-05
49	0x388e9e48	6.80057e-05
50	0x388f26de	6.826011e-05
51	0x388e93df	6.798631e-05
52	0x388feaf2	6.862533e-05
53	0x389075b6	6.8883804e-05
54	0x38909610	6.8944064e-05
55	0x388fb8aa	6.853168e-05
56	0x2aae747a	3.098943e-13
57	0x2a2f26f2	1.5556634e-13
58	0x293ef47b	4.2400528e-14
59	0x28c71ecd	2.2106796e-14
60	0x2acbc0d6	3.619385e-13
61	0x25218cd7	1.4012242e-16
62	0x25dde608	3.8493264e-16
63	0x29af771a	7.792222e-14
64	0x37c650f6	2.364114e-05
65	0x37c2e635	2.32338e-05
66	0x37c396c9	2.3316026e-05
67	0x37c0e743	2.2995873e-05
68	0x37c371ca	2.3298799e-05
69	0x37c2110a	2.3134537e-05
70	0x37c05aa9	2.29304e-05
71	0x37be5b35	2.2692237e-05
72	0x3704b897	7.910791e-06
73	0x37082b67	8.116337e-06
74	0x37097450	8.192917e-06
75	0x370c6672	8.368503e-06
76	0x370da916	8.443623e-06
77	0x370fada5	8.563894e-06
78	0x370e0d6a	8.466983e-06
79	0x370a62b9	8.248427e-06
80	0x36deadc6	6.6363455e-06
81	0x36ec210a	7.0371943e-06
82	0x36fe484a	7.5782054e-06
83	0x36f3497e	7.25052e-06
84	0x36f25cd6	7.2229695e-06
85	0x36ea73f7	6.9872435e-06
86	0x36e52017	6.8284676e-06
87	0x36e491d1	6.8119048e-06
88	0x35a0dcf0	1.198523e-06
89	0x359fb600	1.1899392e-06
90	0x359be9c4	1.1616435e-06
91	0x359895d8	1.1368493e-06
92	0x359611b1	1.118102e-06
93	0x35923603	1.0893567e-06
94	0x358f81d0	1.0692111e-06
95	0x358ef0c4	1.0649896e-06
96	0x310d1afb	2.0533537e-09
97	0x31b454b1	5.248318e-09
98	0x30b67f70	1.3278463e-09
99	0x2fa14a1d	2.933839e-10
100	0x2eb24963	8.107539e-11
101	0x2e02595a	2.9637938e-11
102	0x2d91a691	1.6558562e-11
103	0x2d6395ba	1.2936702e-11
104	0x37469cdb	1.183824e-05
105	0x3748519d	1.1939931e-05
106	0x374a121e	1.20443565e-05
107	0x374c7443	1.2186417e-05
108	0x374dc685	1.2265174e-05
109	0x37508169	1.2427897e-05
110	0x375081ad	1.2427959e-05
111	0x3751db47	1.2508425e-05
112	0x39908801	0.0002756715
113	0x398f1e9c	0.0002729789
114	0x398ddc7d	0.00027057892
115	0x398dac74	0.00027022103
116	0x398dcef1	0.000270478
117	0x398e0f4f	0.00027095756
118	0x39905672	0.00027530227
119	0x398f1573	0.00027291066
120	0x3694dfa5	4.4367794e-06
121	0x3691b72f	4.342662e-06
122	0x368d12d7	4.2043207e-06
123	0x368a6301	4.124246e-06
124	0x36888703	4.0688333e-06
125	0x36896f69	4.095888e-06
126	0x3687b566	4.044431e-06
127	0x368632d0	3.9994266e-06
128	0x3648dcad	2.9930773e-06
129	0x364b9a7b	3.0339277e-06
130	0x364ceaad	3.0534968e-06
131	0x364f5ae3	3.0898307e-06
132	0x36544713	3.1631832e-06
133	0x365b2cfc	3.2659727e-06
134	0x365b845a	3.2710582e-06
135	0x36565d8f	3.1942943e-06
136	0x36d403e4	6.3185453e-06
137	0x36db1425	6.5290537e-06
138	0x36dbfcdb	6.556145e-06
139	0x36d9e245	6.493445e-06
140	0x36d731ca	6.4132955e-06
141	0x36dbb5b4	6.5478616e-06
142	0x36e0a8b2	6.695359e-06
143	0x36e3593d	6.775516e-06
144	0x370cf152	8.400837e-06
145	0x3710b83e	8.625966e-06
146	0x37117eb4	8.672174e-06
147	0x371127c4	8.651932e-06
148	0x371223ab	8.710583e-06
149	0x371569fd	8.905769e-06
150	0x371712b4	9.004656e-06
151	0x3716a106	8.978188e-06
152	0x37996faf	1.8291028e-05
153	0x379949b5	1.8273344e-05
154	0x3798fb27	1.8236764e-05
155	0x3793c75e	1.7616603e-05
156	0x3790d77b	1.7266479e-05
157	0x378fb349	1.7130415e-05
158	0x378d0920	1.6812759e-05
159	0x378d95bf	1.687824e-05
160	0x3683b349	3.9249758e-06
161	0x36893158	4.0886625e-06
162	0x368a0b02	4.114002e-06
163	0x3687b245	4.044067e-06
164	0x3684dae9	3.959391e-06
165	0x3685f354	3.992036e-06
166	0x3687a8fc	4.042986e-06
167	0x3687d9ee	4.048684e-06
168	0x360002fc	1.9075223e-06
169	0x35fad8fb	1.8689601e-06
170	0x35f69e39	1.8374477e-06
171	0x35f3a46a	1.8152762e-06
172	0x35eafe30	1.7508337e-06
173	0x35e93c29	1.7377362e-06
174	0x35e98e99	1.7401354e-06
175	0x35e6ccea	1.7195973e-06
176	0x36b41293	5.3665804e-06
177	0x36b41afb	5.367559e-06
178	0x36b6bcc8	5.4459997e-06
179	0x36b70180	5.4539996e-06
180	0x36b9ea75	5.540724e-06
181	0x36ba5642	5.5532737e-06
182	0x36b7dac1	5.4792913e-06
183	0x36b61f98	5.4277007e-06
184	0x354db564	7.663241e-07
185	0x355e00e6	8.270275e-07
186	0x35584ec8	8.058091e-07
187	0x35563bb8	7.9808115e-07
188	0x354ac97a	7.554405e-07
189	0x35463068	7.383119e-07
190	0x354fc5af	7.7401177e-07
191	0x355c6e37	8.211677e-07
192	0x37bb9d07	2.2365259e-05
193	0x37bc30ba	2.2434037e-05
194	0x37bd8cad	2.2596063e-05
195	0x37bce7f4	2.2519358e-05
196	0x37c0bd63	2.2976374e-05
197	0x37c0ada4	2.2969041e-05
198	0x37c08d75	2.2954055e-05
199	0x37c4728f	2.3418366e-05
200	0x36dd197c	6.58928e-06
201	0x36dddd02	6.612042e-06
202	0x36e1019b	6.7057094e-06
203	0x36dfcbf5	6.6696616e-06
204	0x36e35d40	6.775983e-06
205	0x36e5955b	6.842119e-06
206	0x36e57988	6.83888e-06
207	0x36df5b3a	6.656538e-06
208	0x3916edfd	0.00014393772
209	0x39151fd1	0.000142216
210	0x39138850	0.00014069793
211	0x3910a487	0.00013794201
212	0x3910265b	0.00013747199
213	0x390f8bf9	0.00013689687
214	0x390ff9d7	0.00013730615
215	0x390fc654	0.00013711426
216	0x370e2d31	8.4743815e-06
217	0x370f86c5	8.554843e-06
218	0x370d7057	8.430411e-06
219	0x370a6598	8.249095e-06
220	0x370ae235	8.278109e-06
221	0x370ef5f3	8.521124e-06
222	0x370e5b80	8.485164e-06
223	0x370dba54	8.447638e-06
224	0x36cba375	6.0689003e-06
225	0x36cdce03	6.133459e-06
226	0x36ce3de0	6.1464816e-06
227	0x36d06089	6.2101212e-06
228	0x36d081e7	6.2140057e-06
229	0x36d42d62	6.3233756e-06
230	0x36d34968	6.2968356e-06
231	0x36d03330	6.204842e-06
232	0x29e4ccce	1.0160762e-13
233	0x27612211	3.124349e-15
234	0x281cdaf3	8.707217e-15
235	0x27b5c4b4	5.0450858e-15
236	0x297d75df	5.6279522e-14
237	0x2655b26e	7.414104e-16
238	0x2ab181af	3.1531502e-13
239	0x27f897ca	6.8998398e-15
240	0x37440773	1.1684245e-05
241	0x37439c5f	1.1659314e-05
242	0x37463f06	1.1816393e-05
243	0x3747aff7	1.1902294e-05
244	0x374b1b83	1.21061485e-05
245	0x374e1ec5	1.2285721e-05
246	0x374e0a6e	1.2280985e-05
247	0x374e9b15	1.2314665e-05
248	0x371e5bd4	9.438914e-06
249	0x3724c5f4	9.821251e-06
250	0x372b25be	1.0201182e-05
251	0x372d6b37	1.0336566e-05
252	0x37317886	1.0578084e-05
253	0x37371be3	1.0914143e-05
254	0x373a177d	1.1091933e-05
255	0x37373b2e	1.0921429e-05

exp_avg f4 [50]
0	0x39ed7af2	0.00045295764
1	0x3af05765	0.0018336592
2	0xb8b61a9a	-8.683391e-05
3	0x3a195286	0.0005848784
4	0x3ae193e9	0.0017210218
5	0x3a51dae2	0.00080053334
6	0x3ae98526	0.0017816171
7	0xb380c050	-5.995446e-08
8	0x3b36de9a	0.0027903677
9	0x3b142c01	0.0022609236
10	0xbb39ca8e	-0.0028349492
11	0xba8f7bff	-0.0010946988
12	0xb87e65d9	-6.0653172e-05
13	0x397203f2	0.00023080388
14	0x3ba31416	0.0049767597
15	0x3aba7d5e	0.0014228036
16	0x3b56aca9	0.0032756722
17	0x3b186c56	0.0023257933
18	0x3aeec045	0.001821526
19	0xbb92f381	-0.0044845943
20	0x3b177780	0.0023112
21	0xba98d366	-0.0011659681
22	0x3b1fec75	0.0024402414
23	0xb9b9adc7	-0.00035415424
24	0x3af469e2	0.0018647278
25	0x3a18c77f	0.0005828067
26	0x3b4a581d	0.0030875274
27	0x3abe9134	0.0014539124
28	0x3acf509a	0.0015816868
29	0xb4110b43	-1.3508274e-07
30	0x3b823a62	0.003974245
31	0x3b5fa3d3	0.0034124746
32	0x3a991472	0.0011679067
33	0x3b612dcd	0.0034359575
34	0x3b497375	0.0030738984
35	0x3aec1efc	0.0018014605
36	0x3aa9f52e	0.0012966746
37	0x3b1738d5	0.0023074646
38	0xbb02a8da	-0.001993707
39	0xbbaeb3e8	-0.005331505
40	0xbb5e9d73	-0.0033968359
41	0xbaded382	-0.001700029
42	0xba418996	-0.00073828676
43	0x3b30dc0c	0.0026986627
44	0xbb6b620f	-0.0035916602
45	0xb446f235	-1.8528301e-07
46	0xb3dbc18e	-1.02331896e-07
47	0xbb2bd011	-0.0026216547
48	0x3b1cbe82	0.0023917262
49	0xb8d86e80	-0.00010320265

exp_avg_sq f4 [50]
0	0x3978d87a	0.00023731767
1	0x383df18c	4.528607e-05
2	0x39000c35	0.00012211579
3	0x390ec2e7	0.00013614782
4	0x3851daca	5.0033246e-05
5	0x387da37e	6.0472164e-05
6	0x3928a348	0.00016082556
7	0x2ade45cc	3.9483553e-13
8	0x388a62e0	6.59877e-05
9	0x38f6c642	0.000117671225
10	0x373d532c	1.1284643e-05
11	0x3a4ed193	0.00078895054
12	0x3224e616	9.598372e-09
13	0x38a8fa35	8.057469e-05
14	0x3a4a12eb	0.00077085075
15	0x37f66a61	2.9375022e-05
16	0x389728d8	7.207849e-05
17	0x3887a317	6.4676795e-05
18	0x38d526c6	0.000101638536
19	0x38b92716	8.828768e-05
20	0x381a1b07	3.6741632e-05
21	0x3a5dcf8a	0.00084614067
22	0x3803cf7f	3.142608e-05
23	0x38274855	3.9883267e-05
24	0x3839856a	4.423169e-05
25	0x3879ffbf	5.960441e-05
26	0x399e8299	0.0003023341
27	0x3893302b	7.018478e-05
28	0x38595a1e	5.182076e-05
29	0x2b29c962	6.0320336e-13
30	0x38ae39c0	8.307723e-05
31	0x385309aa	5.031532e-05
32	0x35605287	8.3566596e-07
33	0x39ab9a3d	0.00032730578
34	0x39214d4a	0.00015382949
35	0x393e7e2b	0.00018166813
36	0x39bb5b35	0.00035735374
37	0x3924ce0b	0.00015717016
38	0x3988cbb3	0.0002609171
39	0x3a855f19	0.0010175436
40	0x3976ce5f	0.00023537267
41	0x398195be	0.00024716364
42	0x38bc7355	8.986021e-05
43	0x3806e80f	3.216421e-05
44	0x3741585b	1.1524268e-05
45	0x2b4d3ae5	7.2912363e-13
46	0x2b117fee	5.1691886e-13
47	0x3a85fc71	0.0010222328
48	0x382a28e9	4.056926e-05
49	0x38f19eea	0.000115213756

exp_avg f4 [10, 50, 8]
0	0xba0837c9	-0.0005196301
1	0xba181fcc	-0.0005803078
2	0xba228cd2	-0.00062007934
3	0xb9e3a54d	-0.00043419973
4	0xba53b6dd	-0.000807626
5	0xba431f46	-0.000744332
6	0xb9f37fed	-0.00046443884
7	0xba06f571	-0.0005148268
8	0x3b2c2212	0.0026265425
9	0x3b0a8f6f	0.0021142622
10	0x3b404cdf	0.0029342694
11	0x3b88208b	0.00415427
12	0x3b94c258	0.004539769
13	0x3acb14f2	0.0015493913
14	0x3aca7229	0.0015445399
15	0x3a585380	0.00082521886
16	0x3b90f6a3	0.0044239326
17	0x3b7a816b	0.0038224112
18	0x3ba518e3	0.005038367
19	0x3be23eed	0.006904474
20	0x3bfa4487	0.0076375636
21	0x3b7f6a7e	0.0038973386
22	0x3b2fb492	0.002681051
23	0x3b0b1ba9	0.0021226204
24	0x3b0436bd	0.0020174228
25	0x3add9d9c	0.0016907933
26	0x3b17bec4	0.0023154477
27	0x3b5f84a1	0.0034106153
28	0x3b5a5e47	0.0033320354
29	0x3a74de12	0.00093409524
30	0x3a84afb6	0.0010123167
31	0x3a0a5b98	0.0005277931
32	0x3b529b18	0.00321359
33	0x3b34abf4	0.0027568312
34	0x3b73ac97	0.003718173
35	0x3ba05575	0.004893
36	0x3bb1d02f	0.0054264287
37	0x3b2879c7	0.002570735
38	0x3b14f848	0.0022730995
39	0x3ae6a321	0.0017596224
40	0x3ab6e59c	0.0013953927
41	0x3a9c27eb	0.0011913752
42	0x3b06cf3c	0.0020570299
43	0x3b3125ee	0.0027030664
44	0x3b4fe956	0.0031724772
45	0x3aad3f04	0.0013217633
46	0x3aabdd11	0.0013112148
47	0x3a692114	0.00088931737
48	0x3af1b236	0.0018439952
49	0x3ad4af4d	0.001622656
50	0x3b1a6183	0.0023556657
51	0x3b48e1e6	0.0030652224
52	0x3b4b8683	0.0031055517
53	0x3b1dd3ad	0.0024082467
54	0x3ad911f0	0.0016561132
55	0x3b06ce77	0.002056984
56	0x9d0c0393	-1.8530694e-21
57	0x9c455638	-6.5293267e-22
58	0x9b09b8c1	-1.1392072e-22
59	0x9c04ebfb	-4.3980134e-22
60	0x9c96a70d	-9.969349e-22
61	0x1c38e185	6.117197e-22
62	0x17fa97b2	1.6194165e-24
63	0x9b499610	-1.6674818e-22
64	0x3b012cc3	0.0019710518
65	0x3acaecaa	0.0015481908
66	0x3b28d2dc	0.0025760448
67	0x3b5d8073	0.0033798486
68	0x3b845d44	0.0040394384
69	0x3a9d8564	0.0012017903
70	0x3acb2246	0.0015497885
71	0x3a85ff40	0.0010223165
72	0x3b1cbada	0.0023915083
73	0x3b051bfd	0.0020310872
74	0x3b3ec815	0.0029110957
75	0x3b71cbf8	0.0036895256
76	0x3b8f6fd1	0.004377343
77	0x3b0a3268	0.0021087173
78	0x3ab6b901	0.0013940634
79	0x3a63b452	0.00086862326
80	0x358e96ba	1.0623692e-06
81	0xb8d05643	-9.9342804e-05
82	0x35ce61c9	1.5376655e-06
83	0x37031793	7.813697e-06
84	0xb9504674	-0.00019862672
85	0xb9f41693	-0.00046556126
86	0xb8d57fb7	-0.0001018042
87	0xb9058651	-0.00012733905
88	0xb9ac5f78	-0.00032877526
89	0xb9375d8c	-0.00017487089
90	0xb91d329e	-0.00014991543
91	0xb82ad3a6	-4.072827e-05
92	0xb910d47c	-0.00013812067
93	0x38d0079b	9.9196295e-05
94	0x3968620b	0.00022161768
95	0x3a0888f2	0.0005208395
96	0x343d9aef	1.7658361e-07
97	0x1a2f6652	3.6271805e-23
98	0x9b03ec0b	-1.0912336e-22
99	0xb1a58707	-4.817483e-09
100	0x33c152d9	9.002333e-08
101	0x3591ab68	1.0853228e-06
102	0xb6d135d5	-6.2349523e-06
103	0x369708da	4.501181e-06
104	0x3b70126a	0.003663207
105	0x3b527665	0.0032114026
106	0x3b8cdbec	0.0042986777
107	0x3bbdc67f	0.005791485
108	0x3bda1cd7	0.00665627
109	0x3b5abfd5	0.00333785
110	0x3b0c655b	0.0021422717
111	0x3ac909f9	0.0015338055
112	0x39bad239	0.00035633313
113	0xb9e250b2	-0.00043166202
114	0xb7a7549b	-1.9947349e-05
115	0x3a1c4331	0.000596094
116	0xba2ce511	-0.0006595413
117	0xbb1d5c39	-0.0024011268
118	0xba6399ce	-0.00086822815
119	0xb952bccf	-0.00020097497
120	0x3afc889d	0.0019266788
121	0x3ae997ca	0.0017821726
122	0x3b100f8e	0.0021981928
123	0x3b3bf321	0.0028678852
124	0x3b4bb097	0.0031080598
125	0x3ae42b48	0.0017407918
126	0x3a9925c1	0.0011684225
127	0x3a9f22b2	0.0012141077
128	0x3a8e48ea	0.001085547
129	0x3a86e397	0.0010291216
130	0x3ab5a4a0	0.0013858266
131	0x3ac9b32f	0.0015388484
132	0x3b0d58ae	0.002156775
133	0x3aa652d7	0.0012689483
134	0x3a4fc90a	0.00079263805
135	0x3a0ffc07	0.0005492572
136	0x3ac64c27	0.0015128896
137	0x3aa5e618	0.0012657074
138	0x3aefba6a	0.0018289809
139	0x3b0e2ae3	0.0021693043
140	0x3b21db58	0.002469739
141	0x3a7f2e7f	0.00097344065
142	0x3a93098b	0.0011218054
143	0x3a6aa749	0.0008951319
144	0x3b44defa	0.003004013
145	0x3b2dd2c5	0.0026523334
146	0x3b6071f9	0.003424762
147	0x3b97d7e4	0.0046338905
148	0x3ba91e5e	0.0051610908
149	0x3b2adb04	0.0026070485
150	0x3b06227b	0.002046733
151	0x3ad71536	0.001640952
152	0xb7a24a2e	-1.9346448e-05
153	0xb8a9f3a9	-8.103933e-05
154	0xb85fd5aa	-5.3366333e-05
155	0xb821caa5	-3.857412e-05
156	0xb898a84d	-7.279273e-05
157	0xb9c9b751	-0.0003847429
158	0xb98103d4	-0.0002460765
159	0xb9b2fe4a	-0.00034140266
160	0x3aff9339	0.0019498832
161	0x3ad07b7f	0.0015905945
162	0x3b1cf4f2	0.002394971
163	0x3b2e85e8	0.0026630107
164	0x3b5fa588	0.0034125764
165	0x3ab44ec6	0.0013756386
166	0x3aa8c346	0.0012875579
167	0x3a908353	0.0011025466
168	0xb9c2bf51	-0.00037145105
169	0xb956feec	-0.00020503596
170	0xb94b7c89	-0.00019405982
171	0xb9405c0a	-0.00018344834
172	0xb9ac00ed	-0.00032807086
173	0xb88154c5	-6.166989e-05
174	0x390054ea	0.00012238664
175	0x3a0583da	0.0005093195
176	0x3ae62ce9	0.0017560992
177	0x3ab29660	0.0013625138
178	0x3b0bfec0	0.002136156
179	0x3b366dec	0.0027836515
180	0x3b514756	0.0031933389
181	0x3a1a2155	0.00058796006
182	0x3a908819	0.0011026888
183	0x39a56d43	0.0003155266
184	0xb9bafdb0	-0.00035665696
185	0xb97c7d33	-0.00024079233
186	0xb972b394	-0.00023145817
187	0xb954bde7	-0.0002028864
188	0xb9ad84e5	-0.00033096145
189	0xb8fc4d6d	-0.00012030718
190	0x3635d2aa	2.7093724e-06
191	0x3992ecba	0.00028023665
192	0x399ad80e	0.00029534142
193	0x399cba55	0.00029893467
194	0x39df9694	0.00042646064
195	0x3a1571fc	0.0005700884
196	0x3a45a84a	0.00075400306
197	0x39e4cdc6	0.00043640862
198	0x39de6ea6	0.0004242558
199	0x3958e20b	0.00020683573
200	0x3b27530a	0.0025531673
201	0x3b0ac13c	0.0021172306
202	0x3b3f057c	0.0029147556
203	0x3b845954	0.004038969
204	0x3b8bd533	0.0042673587
205	0x3af86f89	0.0018954139
206	0x3ae41ebd	0.001740418
207	0x3ab122df	0.0013514421
208	0x3a5d2e83	0.0008437412
209	0x3a0b407e	0.0005312039
210	0x3a7b9af6	0.0009597981
211	0x3ac4a946	0.0015004061
212	0x3a75bd72	0.0009374238
213	0x39b9cbdf	0.00035437846
214	0x3a0b2e32	0.0005309313
215	0x3a812ff3	0.0009856209
216	0x3b96e788	0.0046052374
217	0x3b879ad6	0.004138331
218	0x3baffada	0.00537048
219	0x3be3756c	0.006941488
220	0x3c0762d1	0.008263306
221	0x3b978b73	0.004624778
222	0x3b428c49	0.0029685667
223	0x3b1e5200	0.0024157763
224	0x3ab8d8dd	0.0014102716
225	0x3a9be8e5	0.001189497
226	0x3ae2ecd8	0.0017313017
227	0x3b0a67c5	0.002111898
228	0x3b315efd	0.0027064674
229	0x3a9f0d89	0.0012134771
230	0x3a68ab6b	0.0008875641
231	0x3a1a5995	0.00058879826
232	0x9c70f935	-7.973143e-22
233	0x9d68235b	-3.0723223e-21
234	0x9a8a20fd	-5.712876e-23
235	0x9d77e491	-3.2808344e-21
236	0x9c37e0b3	-6.084004e-22
237	0x1d0f4265	1.8960218e-21
238	0x9d005008	-1.6982034e-21
239	0x1bd9eee2	3.6054013e-22
240	0xb9804ec1	-0.0002447274
241	0xb9c42338	-0.00037410273
242	0xb9d8964d	-0.00041310713
243	0xba1038e2	-0.000550164
244	0xba1f66b8	-0.0006080675
245	0xb9b885da	-0.00035194942
246	0xb9a86f24	-0.00032126263
247	0xb97ea348	-0.00024284155
248	0x3b01914b	0.001977044
249	0x3ac24572	0.0014821722
250	0x3b19c7f2	0.0023465124
251	0x3b4c246c	0.0031149639
252	0x3b6039d6	0.003421416
253	0x3a896c68	0.0010484578
254	0x3a8d1645	0.0010764083
255	0x3a23bc84	0.00062460476

exp_avg_sq f4 [10, 50, 8]
0	0x385e923f	5.3065127e-05
1	0x3862c13f	5.4062573e-05
2	0x3861d0a8	5.3838507e-05
3	0x386486ec	5.4485092e-05
4	0x387392ee	5.8072554e-05
5	0x3882d148	6.237865e-05
6	0x3887b160	6.47034e-05
7	0x388ea23e	6.8013076e-05
8	0x39e8cdad	0.0004440373
9	0x39dfd524	0.00042692677
10	0x39de5449	0.00042405937
11	0x39db785a	0.00041860604
12	0x39d8c4d0	0.00041345367
13	0x39d6166a	0.0004083396
14	0x39d39254	0.0004035408
15	0x39d3bde0	0.00040386524
16	0x3ab66464	0.0013915417
17	0x3aaf0b27	0.0013354764
18	0x3aadf7c8	0.0013272697
19	0x3aabec09	0.0013116609
20	0x3aac51fa	0.001314699
21	0x3aac036a	0.0013123576
22	0x3aabcb9f	0.0013106948
23	0x3aac929e	0.0013166254
24	0x397545bb	0.00023390997
25	0x396c3e25	0.00022529865
26	0x396b447c	0.00022436859
27	0x396b3978	0.00022432755
28	0x396e573e	0.00022729949
29	0x396e1bc9	0.000227078
30	0x396ef0d6	0.00022787167
31	0x396e4c3b	0.00022725847
32	0x3a581069	0.00082421914
33	0x3a4f5913	0.00079096964
34	0x3a4e44e4	0.0007868542
35	0x3a4afec1	0.000774365
36	0x3a46c80e	0.0007582911
37	0x3a44bd18	0.0007504984
38	0x3a415735	0.00073753606
39	0x3a418868	0.0007382692
40	0x3947b49d	0.00019045403
41	0x393e204c	0.00018131844
42	0x393df269	0.0001811475
43	0x393df8ba	0.00018117102
44	0x393d6264	0.00018061098
45	0x3942bd38	0.00018571771
46	0x3944eb7c	0.00018779741
47	0x3943db1d	0.00018678275
48	0x3999f54c	0.00029365194
49	0x39946c39	0.00028309392
50	0x39936c92	0.00028118916
51	0x3991a876	0.00027782068
52	0x3993230f	0.00028064146
53	0x3993e082	0.00028205296
54	0x399557f5	0.00028485028
55	0x3995f71f	0.00028603614
56	0x26682f9f	8.055571e-16
57	0x2633c392	6.236815e-16
58	0x234e88ff	1.11962924e-17
59	0x2577a684	2.1480253e-16
60	0x25e20fb0	3.921538e-16
61	0x25c2baba	3.3780166e-16
62	0x1e143de6	7.847855e-21
63	0x23ded959	2.4161339e-17
64	0x39a0c782	0.00030666223
65	0x3999d587	0.00029341524
66	0x3999b02a	0.00029313687
67	0x3999900d	0.0002928976
68	0x399adf24	0.00029539422
69	0x399d277e	0.00029974798
70	0x399dda69	0.00030108102
71	0x399de0ab	0.00030112764
72	0x3a76a35c	0.0009408498
73	0x3a6e5180	0.0009091124
74	0x3a6d5925	0.0009054116
75	0x3a671ea9	0.00088165194
76	0x3a5cc548	0.0008421731
77	0x3a520f89	0.0008013179
78	0x3a47a3b3	0.00076156406
79	0x3a451ff1	0.0007519713
80	0x343c870e	1.7557997e-07
81	0x3439e8a8	1.7314107e-07
82	0x3433a858	1.6731917e-07
83	0x3430c120	1.6461536e-07
84	0x346f3a9c	2.2279931e-07
85	0x34980353	2.8314625e-07
86	0x34931532	2.7396305e-07
87	0x346e4b57	2.2192886e-07
88	0x38170f10	3.6015233e-05
89	0x381bcc94	3.7145408e-05
90	0x381ee09b	3.7879316e-05
91	0x38262090	3.960781e-05
92	0x38341887	4.2938187e-05
93	0x3840e912	4.599343e-05
94	0x384f3e2a	4.941054e-05
95	0x3854f87d	5.077616e-05
96	0x2cbfa3b8	5.446723e-12
97	0x220318b7	1.7766895e-18
98	0x234c11cd	1.1062632e-17
99	0x2ad149f5	3.7177176e-13
100	0x2f0dfa99	1.2912905e-10
101	0x30967fb2	1.095023e-09
102	0x32179cc9	8.825006e-09
103	0x32712922	1.4037399e-08
104	0x3aa0bc75	0.0012263196
105	0x3a9a5c2f	0.001177674
106	0x3a9933e7	0.0011688442
107	0x3a9636ae	0.0011460388
108	0x3a93265d	0.0011226643
109	0x3a90290d	0.0010998562
110	0x3a8d533b	0.0010782251
111	0x3a8d693a	0.0010788806
112	0x35894986	1.0228694e-06
113	0x35ed76cd	1.7692452e-06
114	0x3504a4a4	4.9413416e-07
115	0x363d3248	2.8192462e-06
116	0x36f63022	7.3369747e-06
117	0x3717b81c	9.043168e-06
118	0x370887e3	8.13787e-06
119	0x36dc336f	6.5624986e-06
120	0x3a117de8	0.00055500725
121	0x3a0de93e	0.0005413479
122	0x3a0ca6c1	0.00053654244
123	0x3a07a325	0.0005174152
124	0x3a01cd09	0.0004951512
125	0x39f5c454	0.00046876317
126	0x39ebd240	0.0004497934
127	0x39eab89f	0.0004476951
128	0x3a06504f	0.0005123661
129	0x3a02d795	0.00049912307
130	0x3a024429	0.0004969263
131	0x3a0045cf	0.0004893215
132	0x39f54f3b	0.00046789073
133	0x39e94a48	0.00044496567
134	0x39dddd03	0.0004231707
135	0x39d7cc1d	0.00041160072
136	0x39c23c05	0.00037047282
137	0x39bb6669	0.0003574372
138	0x39bab62f	0.00035612422
139	0x39b6f073	0.00034892894
140	0x39adb8f2	0.00033134926
141	0x39a63ea6	0.00031708664
142	0x399f1437	0.00030341904
143	0x399adb51	0.00029536572
144	0x3a359761	0.0006927159
145	0x3a2ef149	0.00066735275
146	0x3a2db8aa	0.00066269434
147	0x3a2a125e	0.0006487722
148	0x3a278196	0.0006389854
149	0x3a253ebd	0.0006303599
150	0x3a22abe7	0.0006205425
151	0x3a234772	0.0006228603
152	0x357ad5b8	9.344326e-07
153	0x3567937c	8.6268824e-07
154	0x356a7657	8.7344e-07
155	0x355d5634	8.245436e-07
156	0x355637e5	7.980255e-07
157	0x3597a83e	1.1299342e-06
158	0x35a17501	1.2029487e-06
159	0x359dc164	1.1753696e-06
160	0x39a868c6	0.0003212152
161	0x399ff264	0.00030507438
162	0x399f7b72	0.00030418817
163	0x399d6aab	0.00030024847
164	0x39988ea8	0.00029097986
165	0x3997756e	0.00028888456
166	0x39922f69	0.00027882613
167	0x39902bf7	0.00027498577
168	0x386b6d38	5.6130084e-05
169	0x3870b6be	5.739065e-05
170	0x387496e2	5.8314654e-05
171	0x387fa3a9	6.0949158e-05
172	0x388a7125	6.6014276e-05
173	0x3892bb2e	6.9966874e-05
174	0x389e2724	7.5413176e-05
175	0x38a06a3c	7.649182e-05
176	0x39f081c4	0.0004587305
177	0x39e8acb1	0.00044379153
178	0x39e7d8cd	0.00044221283
179	0x39e23d1e	0.00043151615
180	0x39d69c1c	0.0004093357
181	0x39cd8112	0.00039196812
182	0x39c2d30d	0.0003715981
183	0x39c1d139	0.00036967712
184	0x3855c7ae	5.0969124e-05
185	0x38592752	5.177345e-05
186	0x385b52f0	5.229091e-05
187	0x3863431c	5.4183518e-05
188	0x38734b40	5.8005797e-05
189	0x3882399a	6.209612e-05
190	0x388ab583	6.614162e-05
191	0x388ecd5b	6.809338e-05
192	0x36a7daaa	5.0024437e-06
193	0x36a5113f	4.919391e-06
194	0x36a025e2	4.7727817e-06
195	0x36a2e6c3	4.8548404e-06
196	0x36a5d66e	4.942346e-06
197	0x36b1e80d	5.3020253e-06
198	0x36b64c98	5.4329394e-06
199	0x36b39bea	5.3527665e-06
200	0x39db9a74	0.00041886012
201	0x39d278df	0.00040144377
202	0x39d2036f	0.0004005688
203	0x39cff3a2	0.00039663637
204	0x39d056cf	0.0003973753
205	0x39d0495d	0.00039727511
206	0x39cf9536	0.00039593288
207	0x39d122de	0.00039889565
208	0x386d58e5	5.6587993e-05
209	0x3866518c	5.491222e-05
210	0x38651c34	5.462412e-05
211	0x3861e1d5	5.3854503e-05
212	0x386abef9	5.5967805e-05
213	0x386ce92f	5.6483954e-05
214	0x386b623b	5.611985e-05
215	0x386f8c75	5.711285e-05
216	0x3ae420a6	0.001740475
217	0x3adaec99	0.0016702592
218	0x3ad90acc	0.0016559004
219	0x3ad54983	0.0016272519
220	0x3ad3d29d	0.001616079
221	0x3ad22515	0.001603278
222	0x3ad0a861	0.0015919321
223	0x3ad12746	0.0015957139
224	0x39a7b7f4	0.00031989778
225	0x39a17c3b	0.00030800872
226	0x39a0d26d	0.00030674358
227	0x399d47a1	0.0002999874
228	0x399620c3	0.0002863464
229	0x398f5cf8	0.00027344353
230	0x3988c44f	0.00026086203
231	0x39864a14	0.00025613664
232	0x265a7866	7.5797114e-16
233	0x2706a628	1.868631e-15
234	0x26806f0d	8.911885e-16
235	0x26d06bc4	1.4462109e-15
236	0x25549ff8	1.8442268e-16
237	0x2709b20c	1.9109089e-15
238	0x2642ed2a	6.762869e-16
239	0x24e0fb19	9.756989e-17
240	0x399b7ebe	0.00029658334
241	0x399b5b14	0.00029631762
242	0x399af639	0.0002955662
243	0x399bce27	0.000297175
244	0x399ca2b7	0.0002987587
245	0x399bafdd	0.00029694932
246	0x399afa9a	0.00029559882
247	0x399a604c	0.00029444916
248	0x3a7e710e	0.00097061775
249	0x3a780e94	0.00094626215
250	0x3a77a516	0.0009446902
251	0x3a702a7e	0.0009161605
252	0x3a63ca91	0.00086895475
253	0x3a5839a3	0.00082483346
254	0x3a4d1a15	0.0007824016
255	0x3a4c1a6b	0.0007785919

exp_avg f4 [10]
0	0x3871b900	5.7631172e-05
1	0xbbd97c79	-0.0066371528
2	0x33a6d65a	7.768968e-08
3	0xbb1ac6cb	-0.0023617025
4	0xb400a4db	-1.1980903e-07
5	0xb4777c5d	-2.304891e-07
6	0x3aa6316f	0.0012679527
7	0x30937da5	1.0731368e-09
8	0x3bca9da3	0.0061833425
9	0x3a35d8dd	0.0006936917

exp_avg_sq f4 [10]
0	0x3b646b82	0.0034854119
1	0x3b5a9686	0.003335388
2	0x2ce7e652	6.5909856e-12
3	0x3a1c579f	0.00059639843
4	0x2f127104	1.3318774e-10
5	0x2eda0a51	9.915325e-11
6	0x38ee3852	0.00011359215
7	0x2e841345	6.006088e-11
8	0x3a6ad9e7	0.00089588616
9	0x38926c84	6.982035e-05

exp_avg f4 [200, 70]
0	0xb99a5480	-0.00029436126
1	0xbb33268e	-0.0027336213
2	0xba0f1e27	-0.000545951
3	0xba20c310	-0.0006132582
4	0xba1d6eb5	-0.00060055713
5	0xba5ecef7	-0.0008499468
6	0xb9e3b570	-0.00043431995
7	0xb89da156	-7.5163945e-05
8	0xb835d47e	-4.335166e-05
9	0xbab0af5b	-0.0013479994
10	0x391f9e29	0.00015222341
11	0xb72ff720	-1.0488351e-05
12	0xb94ac084	-0.00019335939
13	0xb8f95db2	-0.00011890697
14	0x1f3b2dbf	3.963663e-20
15	0x33031579	3.0520344e-08
16	0x9e842c53	-1.3994376e-20
17	0x21116e97	4.9274275e-19
18	0xaa82d96c	-2.3243506e-13
19	0xaaabd140	-3.0520898e-13
20	0x9f08d185	-2.897243e-20
21	0x3b290fb0	0.0025796704
22	0x3ab0a025	0.0013475461
23	0x3b117515	0.002219503
24	0x3b1b421a	0.0023690523
25	0x3b009f9c	0.0019626385
26	0x3ac2b3bc	0.001485459
27	0x3ac0f26f	0.0014720688
28	0x220f938f	1.945823e-18
29	0x9bd42d12	-3.5101584e-22
30	0xa234f9cb	-2.4526788e-18
31	0x9ce34fd9	-1.504224e-21
32	0x1cc9d513	1.3356143e-21
33	0x1b5d5215	1.8307214e-22
34	0x1e303c00	9.32977e-21
35	0xaa0e0b1d	-1.2615989e-13
36	0xb02863c4	-6.125982e-10
37	0x9b2b7222	-1.4181667e-22
38	0x249e0704	6.853346e-17
39	0x9d3e6c31	-2.5202224e-21
40	0x9de5c9cc	-6.082445e-21
41	0x9a2ea15e	-3.6112708e-23
42	0x3b19d27a	0.00234714
43	0x3ae8ab3e	0.001775123
44	0x3aef06ed	0.0018236317
45	0x3b1f26b8	0.0024284553
46	0x3af7a7d6	0.0018894623
47	0x3ab9a346	0.0014163039
48	0x3aab4847	0.0013067805
49	0x1be9b9da	3.866672e-22
50	0xab7e768d	-9.040345e-13
51	0x9cdd93f2	-1.4662796e-21
52	0x9e77cf30	-1.31189165e-20
53	0x9e9d6c03	-1.6667694e-20
54	0xa4dff1ae	-9.7120255e-17
55	0x2bd29905	1.4963869e-12
56	0x3a88378b	0.001039253
57	0xba058259	-0.00050929707
58	0x3b08932f	0.0020839681
59	0x3a2e7de5	0.0006656333
60	0x3a22fca8	0.0006217458
61	0x3a03462e	0.0005007711
62	0x3999780e	0.00029271882
63	0x3b158637	0.0022815594
64	0x3a5568ec	0.000814094
65	0x3adfa34f	0.001706222
66	0x3b155043	0.0022783435
67	0x3aee4759	0.0018179222
68	0x3ab2f2f6	0.001365273
69	0x3a9d039b	0.0011979224
70	0xb97732c0	-0.00023574661
71	0xbb480f40	-0.0030526668
72	0xb946f84b	-0.00018975248
73	0xb98e95f3	-0.00027196071
74	0xb9a621d1	-0.00031687182
75	0xb9a0fc62	-0.00030705618
76	0xb95d4ed0	-0.00021105562
77	0xb8c51086	-9.39677e-05
78	0xb7f84c21	-2.9599354e-05
79	0xb9a9c57a	-0.00032381323
80	0xb6e753f3	-6.8941094e-06
81	0xb9714266	-0.00023008286
82	0xb9c697b6	-0.00037878536
83	0xb9864447	-0.00025609342
84	0xab2da972	-6.16971e-13
85	0xb101fc2e	-1.8915318e-09
86	0x1cf0a014	1.5923247e-21
87	0x1d39bb50	2.4581384e-21
88	0x1cd9a893	1.4403431e-21
89	0x2a879675	2.4085218e-13
90	0x2b1a7bf8	5.488383e-13
91	0x3ac1645d	0.0014754642
92	0xb956c6e1	-0.00020482719
93	0xbac08d68	-0.001469058
94	0xba960980	-0.0011446923
95	0xba3ec520	-0.0007277299
96	0x388d7e50	6.7469315e-05
97	0x3a9b27ce	0.0011837424
98	0xa9a852c8	-7.475059e-14
99	0x2fdcad49	4.0140893e-10
100	0x9efb460c	-2.660463e-20
101	0x1b70a2d4	1.9904947e-22
102	0x2b01d251	4.612188e-13
103	0xa1f7501d	-1.6758577e-18
104	0xb09292cb	-1.0664619e-09
105	0x27455f8a	2.7391034e-15
106	0x32634bb8	1.32303555e-08
107	0x1cd4d1f8	1.4083259e-21
108	0x9f9212a5	-6.186425e-20
109	0x1b1c2f6b	1.2919339e-22
110	0x1c288a02	5.576491e-22
111	0x1cab3640	1.1329854e-21
112	0x3abe3ed0	0.0014514569
113	0x39523574	0.00020047073
114	0xbaa15f5b	-0.0012311743
115	0xba61072a	-0.00085841364
116	0xba1082de	-0.0005512665
117	0x38162793	3.5799643e-05
118	0x3a80114a	0.0009770778
119	0x21acc6fc	1.1707844e-18
120	0x9d8e1f4b	-3.7619443e-21
121	0x1f221fe8	3.4331227e-20
122	0xaab25df1	-3.1684337e-13
123	0x1d6ed103	3.1607094e-21
124	0x1c483c54	6.625242e-22
125	0xa99b5e5f	-6.8997535e-14
126	0x3a3467ab	0.0006881903
127	0xbaad46f3	-0.0013219997
128	0xb9d852cf	-0.00041260428
129	0xba2fc9c0	-0.00067057833
130	0xb9e214a4	-0.00043121458
131	0xb8a058f1	-7.645961e-05
132	0x39d4e25c	0.00040604442
133	0x3ab669f6	0.0013917077
134	0x39b49fb8	0.00034451275
135	0xbaa7b3b4	-0.0012794645
136	0xba771c03	-0.00094264763
137	0xba3312b7	-0.0006831097
138	0xb92d1102	-0.00016504902
139	0x3a51fe5a	0.00080106186
140	0xb9e7c113	-0.00044203605
141	0xbbc1ec66	-0.0059180735
142	0xba2bdfc8	-0.00065564783
143	0xb9ee0672	-0.000453997
144	0xb9d7f940	-0.000411937
145	0xba1b1f3f	-0.0005917437
146	0xb9c4d7a3	-0.00037544695
147	0xb924bc7f	-0.00015710479
148	0xb854a030	-5.0693925e-05
149	0xba2b0df2	-0.00065252103
150	0xb9667252	-0.00021977097
151	0xba07e541	-0.0005184003
152	0xba169f96	-0.0005745826
153	0xb9dff315	-0.00042714985
154	0x2215761c	2.0255792e-18
155	0x32c5c584	2.3023638e-08
156	0xa29709b0	-4.093889e-18
157	0x9c25c212	-5.484475e-22
158	0x9a09a3de	-2.8463307e-23
159	0x29c4e69c	8.744153e-14
160	0x2b04100d	4.6918095e-13
161	0x3b208c0c	0.0024497537
162	0xba27479d	-0.00063812156
163	0xbb5f0086	-0.0034027412
164	0xbb32d936	-0.0027290112
165	0xbacb38d1	-0.0015504604
166	0x38ee0b02	0.00011350775
167	0x3afdb27a	0.0019355558
168	0xa33c0589	-1.01926725e-17
169	0x2f88e1dc	2.489874e-10
170	0xa084f094	-2.252087e-19
171	0x2a8173db	2.2995394e-13
172	0x1ba6efa8	2.761727e-22
173	0x9d8c94b3	-3.7211443e-21
174	0x2ee5712f	1.043382e-10
175	0xafbb11ed	-3.402784e-10
176	0x335ac933	5.094007e-08
177	0xab56260e	-7.6080884e-13
178	0xa09dbadb	-2.6720485e-19
179	0x1e9fbf5e	1.6913927e-20
180	0x9d108997	-1.9129374e-21
181	0x9d9656c2	-3.9794375e-21
182	0x3b1d71e9	0.0024024195
183	0x38cc7068	9.748415e-05
184	0xbb415278	-0.0029498618
185	0xbb0f700e	-0.0021886858
186	0xbaa73eed	-0.0012759842
187	0x379f9a23	1.9026053e-05
188	0x3acf7a0a	0.0015829217
189	0x1c958b4b	9.895999e-22
190	0x1cca8544	1.3401687e-21
191	0x23cf169f	2.2452565e-17
192	0x1f10e6b0	3.0684006e-20
193	0x1a98ebd3	6.324672e-23
194	0x9b6820c3	-1.9201176e-22
195	0xa84f78d6	-1.151701e-14
196	0x3a89d492	0.0010515621
197	0xbb1bb7de	-0.0023760716
198	0xbaa797ff	-0.0012786387
199	0xbacd8e6b	-0.0015682703
200	0xba71830b	-0.00092129473
201	0xb8e27805	-0.00010798875
202	0x3a137f81	0.00056266045
203	0x3b17046c	0.0023043407
204	0x39ee455d	0.00045446577
205	0xbb43f8e6	-0.0029902994
206	0xbb1aa81b	-0.0023598734
207	0xbac6b686	-0.0015160597
208	0xb9949347	-0.0002833849
209	0x3aa8d1f2	0.0012879951
210	0x38f40305	0.00011635389
211	0x39fbc607	0.00048021993
212	0x384c2a07	4.867653e-05
213	0x3913eedf	0.00014107999
214	0x39006d3e	0.00012247727
215	0x38f7b22d	0.000118110656
216	0x38f98714	0.000118984055
217	0xb670a958	-3.5861358e-06
218	0x36f7fc60	7.390554e-06
219	0x394b80d0	0.00019407575
220	0xb89cfae1	-7.4853895e-05
221	0xb70ea089	-8.501237e-06
222	0x340a7ca1	1.2897591e-07
223	0x36b2c408	5.3276344e-06
224	0x1badc952	2.875055e-22
225	0xa1fdc962	-1.7197252e-18
226	0x1e2fb6aa	9.302197e-21
227	0x9c541491	-7.0171497e-22
228	0x1ba35242	2.7019246e-22
229	0x2bd324e9	1.5002696e-12
230	0x2b5f628d	7.936228e-13
231	0x371bf8ce	9.296649e-06
232	0x3935e381	0.00017346257
233	0x38acceb3	8.2401e-05
234	0xb860f230	-5.3631316e-05
235	0x378e2678	1.6945633e-05
236	0x37d7f8b9	2.5745818e-05
237	0x37d98c80	2.5933841e-05
238	0xaa21a193	-1.435573e-13
239	0x1ba7fcab	2.7791115e-22
240	0x2802e4a5	7.266029e-15
241	0xa1c7cabc	-1.3538428e-18
242	0x9eaa8994	-1.8056351e-20
243	0x9c5d6cdd	-7.326347e-22
244	0x1f2b3420	3.6253775e-20
245	0x2bab314a	1.2163961e-12
246	0x205c84d5	1.8678675e-19
247	0xab2377ba	-5.8075387e-13
248	0xa2e2c908	-6.1470273e-18
249	0x9f92c032	-6.2151366e-20
250	0xa34702e4	-1.0788424e-17
251	0x1bfdef8d	4.2010145e-22
252	0x37e996b6	2.7845945e-05
253	0x392ba36f	0.00016368715
254	0x391dd0d0	0.00015050475
255	0xb85653f1	-5.1099752e-05

exp_avg_sq f4 [200, 70]
0	0x363f1323	2.8472357e-06
1	0x39076074	0.00012910535
2	0x35b64563	1.3580251e-06
3	0x3612f1c1	2.1896415e-06
4	0x363b6fcd	2.7930248e-06
5	0x3640ef87	2.8749653e-06
6	0x363e329c	2.8341665e-06
7	0x32ff4f9e	2.9722113e-08
8	0x3378f0e2	5.796108e-08
9	0x37fdd325	3.0258272e-05
10	0x35c1279e	1.4391151e-06
11	0x33d59a56	9.946659e-08
12	0x3409e060	1.2840746e-07
13	0x33765484	5.7353205e-08
14	0x28337503	9.961869e-15
15	0x293c03d1	4.1747696e-14
16	0x27c94256	5.586063e-15
17	0x2844fce2	1.0935021e-14
18	0x290d9810	3.1440182e-14
19	0x2910eff7	3.218256e-14
20	0x27e6dfb9	6.4080385e-15
21	0x36ce7baf	6.153677e-06
22	0x38666f30	5.4939825e-05
23	0x38c8fd37	9.583908e-05
24	0x371f6337	9.500239e-06
25	0x36b59a5d	5.4121906e-06
26	0x36a60c84	4.9486425e-06
27	0x369bb430	4.6403366e-06
28	0x2874d90b	1.3591785e-14
29	0x24d46192	9.2105635e-17
30	0x28878b50	1.5048428e-14
31	0x26a2cbfd	1.1296299e-15
32	0x26399392	6.4384764e-16
33	0x24474e2a	4.3217454e-17
34	0x279a0b11	4.2755585e-15
35	0x2906bbb5	2.9916787e-14
36	0x29eedd94	1.0607761e-13
37	0x24692b10	5.0560297e-17
38	0x28acb0e7	1.9172555e-14
39	0x26ae9ae9	1.2115664e-15
40	0x273c69ea	2.6147657e-15
41	0x2226fb95	2.2630381e-18
42	0x36dc3614	6.5628064e-06
43	0x383346ac	4.2742744e-05
44	0x38c422d2	9.352494e-05
45	0x37457bb4	1.1770917e-05
46	0x36c611f8	5.9029517e-06
47	0x36b51dae	5.3976755e-06
48	0x36a88bb3	5.0230533e-06
49	0x25919bc6	2.5259047e-16
50	0x29204ca8	3.5593625e-14
51	0x26ed75a7	1.6477068e-15
52	0x278c316c	3.891139e-15
53	0x27aa8c44	4.7336555e-15
54	0x28c39398	2.1713358e-14
55	0x2928b703	3.746223e-14
56	0x3728f6d6	1.0071051e-05
57	0x38dae321	0.00010437356
58	0x38319908	4.234261e-05
59	0x37443519	1.1694873e-05
60	0x372bf64d	1.0249741e-05
61	0x37201456	9.541478e-06
62	0x371f6e4b	9.502818e-06
63	0x36ee55e7	7.102953e-06
64	0x382bb938	4.0942075e-05
65	0x39013b06	0.00012324387
66	0x37653224	1.3661138e-05
67	0x36ddb32d	6.607172e-06
68	0x36ca18ba	6.0229477e-06
69	0x36bbecfd	5.6006234e-06
70	0x366850cc	3.4617724e-06
71	0x3913f5c2	0.00014110564
72	0x36b07274	5.258533e-06
73	0x35caa41e	1.5097937e-06
74	0x36040c51	1.9676702e-06
75	0x3616a0c0	2.244531e-06
76	0x3625e3c4	2.4719493e-06
77	0x335141a6	4.872131e-08
78	0x3328d691	3.9310695e-08
79	0x373f5af0	1.140566e-05
80	0x35f93d51	1.8569791e-06
81	0x353d70a2	7.057189e-07
82	0x34ab3b5c	3.1894422e-07
83	0x344fb0fa	1.9342761e-07
84	0x291a7e87	3.4304614e-14
85	0x27252950	2.2920745e-15
86	0x263d120f	6.559702e-16
87	0x26f1eaa4	1.6786334e-15
88	0x26607550	7.78746e-16
89	0x24e4975e	9.9135664e-17
90	0x288ebd9a	1.5847394e-14
91	0x378989f8	1.639592e-05
92	0x38b8a2cf	8.804129e-05
93	0x39752254	0.00023377809
94	0x391cd349	0.00014956029
95	0x38e5659c	0.00010938497
96	0x38ba9c80	8.8983215e-05
97	0x38a48301	7.844531e-05
98	0x29017e29	2.875318e-14
99	0x29c8c3ff	8.915784e-14
100	0x280f3828	7.9502716e-15
101	0x24047761	2.8724055e-17
102	0x29165fda	3.338983e-14
103	0x288690b9	1.4939752e-14
104	0x2a0187ae	1.1504575e-13
105	0x28dc133f	2.4433253e-14
106	0x2a9044e2	2.5627336e-13
107	0x261f3157	5.5231074e-16
108	0x280a2901	7.66943e-15
109	0x237d1f0f	1.3721734e-17
110	0x2535166d	1.5706846e-16
111	0x26e2bde5	1.5733371e-15
112	0x37916bbf	1.733552e-05
113	0x389a129e	7.34676e-05
114	0x395b3113	0.00020903749
115	0x3911f173	0.00013918224
116	0x38d8c5d7	0.00010336533
117	0x38b1310b	8.449153e-05
118	0x389c41a4	7.450886e-05
119	0x289f67ef	1.769762e-14
120	0x2724f1dc	2.2890684e-15
121	0x27cdf8da	5.7168735e-15
122	0x2911694a	3.228779e-14
123	0x27c4beb0	5.460767e-15
124	0x255d8e1e	1.9216846e-16
125	0x2900bd1a	2.858573e-14
126	0x37a9be1d	2.0234898e-05
127	0x3905594e	0.00012717137
128	0x38f47e85	0.00011658393
129	0x38a126b2	7.684286e-05
130	0x3880d909	6.1439416e-05
131	0x386032b3	5.345298e-05
132	0x384cb844	4.8809e-05
133	0x37a01014	1.9080973e-05
134	0x388fe18a	6.860781e-05
135	0x3982cdd9	0.000249489
136	0x39278673	0.00015976447
137	0x38f5ed0c	0.00011726664
138	0x38c74883	9.502566e-05
139	0x38af4d05	8.358996e-05
140	0x3708cfc5	8.154607e-06
141	0x39b71e90	0.0003492725
142	0x373a7113	1.1112791e-05
143	0x36800592	3.8153457e-06
144	0x369cdc6b	4.6748223e-06
145	0x36af19ef	5.2184255e-06
146	0x36bde92f	5.659785e-06
147	0x3402b625	1.2173457e-07
148	0x33d4cf9d	9.909784e-08
149	0x3801791f	3.08688e-05
150	0x3693f2da	4.409213e-06
151	0x35d6c21b	1.6000735e-06
152	0x355023ca	7.753812e-07
153	0x350146b8	4.8159154e-07
154	0x2886e89b	1.4977865e-14
155	0x28a1d5ac	1.7967256e-14
156	0x2889cee5	1.5299782e-14
157	0x256271d7	1.9640946e-16
158	0x2429473d	3.6706375e-17
159	0x275fe3df	3.1070996e-15
160	0x20e1a31a	3.8224414e-19
161	0x3839982b	4.4249155e-05
162	0x396bae92	0.00022476379
163	0x3a144cfc	0.00056572235
164	0x39bf4490	0.00036481442
165	0x3995102b	0.0002843154
166	0x39780d4c	0.00023656077
167	0x395c64da	0.00021018405
168	0x28981a3f	1.6886772e-14
169	0x29f3a121	1.0819319e-13
170	0x2839d507	1.0315756e-14
171	0x290d7750	3.1411776e-14
172	0x26311f3d	6.1451547e-16
173	0x26f4dd34	1.6990858e-15
174	0x29f8c3ed	1.10474e-13
175	0x29c9ff09	8.970435e-14
176	0x2b0b9d8b	4.9601355e-13
177	0x291d9ee3	3.4998815e-14
178	0x283b3d55	1.03938845e-14
179	0x27ba46d0	5.1702146e-15
180	0x26889114	9.476219e-16
181	0x272445dd	2.2797445e-15
182	0x384598ee	4.7110887e-05
183	0x3945edfe	0.00018876043
184	0x3a069448	0.000513379
185	0x39b3b753	0.00034278128
186	0x398cd3cd	0.00026860685
187	0x396bf4d7	0.00022502556
188	0x39522c9b	0.00020043777
189	0x2609b229	4.7772875e-16
190	0x261d07bc	5.44808e-16
191	0x28bfd83d	2.1299038e-14
192	0x27d0ec39	5.798771e-15
193	0x23cc62da	2.215959e-17
194	0x256ab953	2.0359055e-16
195	0x28e577dd	2.547609e-14
196	0x385cf08e	5.267612e-05
197	0x39a6fb0f	0.0003184904
198	0x3992e10c	0.00028014963
199	0x3945e091	0.00018871042
200	0x3925976e	0.00015792038
201	0x3911e422	0.00013913264
202	0x390633c9	0.00012798527
203	0x385880a0	5.1618204e-05
204	0x3938c69e	0.00017621598
205	0x3a1f1fb2	0.00060700916
206	0x39cb5064	0.00038779073
207	0x399e774f	0.00030225
208	0x3983db88	0.0002514983
209	0x396a6cf5	0.00022356569
210	0x3486bfde	2.5099047e-07
211	0x35a7a2d5	1.248986e-06
212	0x3496a6fd	2.8061177e-07
213	0x3490c45e	2.6964966e-07
214	0x348631eb	2.4995765e-07
215	0x3486b368	2.508998e-07
216	0x348841a4	2.5379734e-07
217	0x308a0ff2	1.0045353e-09
218	0x31a81167	4.891422e-09
219	0x34272eb8	1.5570083e-07
220	0x31a6a8a2	4.850407e-09
221	0x30a7d1b8	1.2210455e-09
222	0x3092ea9e	1.068958e-09
223	0x3106af4e	1.9599216e-09
224	0x262d45c3	6.0115977e-16
225	0x26a7a7ab	1.1633399e-15
226	0x279a1095	4.2761565e-15
227	0x25c144e7	3.3526853e-16
228	0x245d08e8	4.792928e-17
229	0x2901dd81	2.8835878e-14
230	0x27db90d9	6.0941755e-15
231	0x34a0cbce	2.995061e-07
232	0x3502c830	4.8720085e-07
233	0x34e48dea	4.2571565e-07
234	0x34a27924	3.0262993e-07
235	0x349b9032	2.8975916e-07
236	0x349bd5cc	2.9026558e-07
237	0x348e99f3	2.6561574e-07
238	0x29081d26	3.022335e-14
239	0x24a0f6ba	6.980691e-17
240	0x28dfd24d	2.4849177e-14
241	0x2868e78a	1.2928794e-14
242	0x27abc2c1	4.7673187e-15
243	0x2754ec88	2.9549134e-15
244	0x27d468ee	5.8955585e-15
245	0x29252519	3.6669537e-14
246	0x28557b78	1.1850648e-14
247	0x29199dee	3.4109807e-14
248	0x288c75e2	1.5594246e-14
249	0x280a1791	7.665649e-15
250	0x2894d0c3	1.6521837e-14
251	0x24fcc857	1.0962697e-16
252	0x34be935e	3.5497482e-07
253	0x350f2525	5.3325704e-07
254	0x350c0410	5.2159976e-07
255	0x34c97bf6	3.752936e-07
